<?xml version="1.0"?>
<net name="Model0" version="11">
	<layers>
		<layer id="1" name="pixel_values" type="Parameter" version="opset1">
			<data shape="?,3,?,?" element_type="f32" />
			<output>
				<port id="0" precision="FP32" names="pixel_values">
					<dim>-1</dim>
					<dim>3</dim>
					<dim>-1</dim>
					<dim>-1</dim>
				</port>
			</output>
		</layer>
		<layer id="0" name="target_sizes" type="Parameter" version="opset1">
			<data shape="?,?" element_type="i64" />
			<output>
				<port id="0" precision="I64" names="target_sizes">
					<dim>-1</dim>
					<dim>-1</dim>
				</port>
			</output>
		</layer>
		<layer id="2" name="__module.model.model/aten::arange/Constant" type="Const" version="opset1">
			<data element_type="i32" shape="" offset="0" size="4" />
			<output>
				<port id="0" precision="I32" />
			</output>
		</layer>
		<layer id="3" name="pixel_values/fq_output_0/input_low" type="Const" version="opset1">
			<data element_type="f32" shape="" offset="0" size="4" />
			<output>
				<port id="0" precision="FP32" />
			</output>
		</layer>
		<layer id="4" name="pixel_values/fq_output_0/input_high" type="Const" version="opset1">
			<data element_type="f32" shape="" offset="4" size="4" />
			<output>
				<port id="0" precision="FP32" />
			</output>
		</layer>
		<layer id="5" name="pixel_values/fq_output_0/output_low" type="Const" version="opset1">
			<data element_type="f32" shape="" offset="0" size="4" />
			<output>
				<port id="0" precision="FP32" />
			</output>
		</layer>
		<layer id="6" name="pixel_values/fq_output_0/output_high" type="Const" version="opset1">
			<data element_type="f32" shape="" offset="4" size="4" />
			<output>
				<port id="0" precision="FP32" />
			</output>
		</layer>
		<layer id="7" name="pixel_values/fq_output_0" type="FakeQuantize" version="opset1">
			<data levels="256" auto_broadcast="numpy" />
			<input>
				<port id="0" precision="FP32">
					<dim>-1</dim>
					<dim>3</dim>
					<dim>-1</dim>
					<dim>-1</dim>
				</port>
				<port id="1" precision="FP32" />
				<port id="2" precision="FP32" />
				<port id="3" precision="FP32" />
				<port id="4" precision="FP32" />
			</input>
			<output>
				<port id="5" precision="FP32">
					<dim>-1</dim>
					<dim>3</dim>
					<dim>-1</dim>
					<dim>-1</dim>
				</port>
			</output>
		</layer>
		<layer id="8" name="Constant_4367730" type="Const" version="opset1">
			<data element_type="i8" shape="32, 3, 3, 3" offset="8" size="864" />
			<output>
				<port id="0" precision="I8">
					<dim>32</dim>
					<dim>3</dim>
					<dim>3</dim>
					<dim>3</dim>
				</port>
			</output>
		</layer>
		<layer id="9" name="Convert_4367731" type="Convert" version="opset1">
			<data destination_type="f32" />
			<input>
				<port id="0" precision="I8">
					<dim>32</dim>
					<dim>3</dim>
					<dim>3</dim>
					<dim>3</dim>
				</port>
			</input>
			<output>
				<port id="1" precision="FP32">
					<dim>32</dim>
					<dim>3</dim>
					<dim>3</dim>
					<dim>3</dim>
				</port>
			</output>
		</layer>
		<layer id="10" name="Constant_4367732" type="Const" version="opset1">
			<data element_type="f32" shape="32, 1, 1, 1" offset="872" size="128" />
			<output>
				<port id="0" precision="FP32">
					<dim>32</dim>
					<dim>1</dim>
					<dim>1</dim>
					<dim>1</dim>
				</port>
			</output>
		</layer>
		<layer id="11" name="__module.model.model.backbone.model.embedder.embedder.0.normalization/aten::mul/Multiply_1/fq_weights_1" type="Multiply" version="opset1">
			<data auto_broadcast="numpy" />
			<input>
				<port id="0" precision="FP32">
					<dim>32</dim>
					<dim>3</dim>
					<dim>3</dim>
					<dim>3</dim>
				</port>
				<port id="1" precision="FP32">
					<dim>32</dim>
					<dim>1</dim>
					<dim>1</dim>
					<dim>1</dim>
				</port>
			</input>
			<output>
				<port id="2" precision="FP32">
					<dim>32</dim>
					<dim>3</dim>
					<dim>3</dim>
					<dim>3</dim>
				</port>
			</output>
		</layer>
		<layer id="12" name="__module.model.model.backbone.model.embedder.embedder.0.normalization/aten::mul/Multiply_1" type="Convolution" version="opset1">
			<data strides="2, 2" dilations="1, 1" pads_begin="1, 1" pads_end="1, 1" auto_pad="explicit" />
			<input>
				<port id="0" precision="FP32">
					<dim>-1</dim>
					<dim>3</dim>
					<dim>-1</dim>
					<dim>-1</dim>
				</port>
				<port id="1" precision="FP32">
					<dim>32</dim>
					<dim>3</dim>
					<dim>3</dim>
					<dim>3</dim>
				</port>
			</input>
			<output>
				<port id="2" precision="FP32" names="207">
					<dim>-1</dim>
					<dim>32</dim>
					<dim>-1</dim>
					<dim>-1</dim>
				</port>
			</output>
		</layer>
		<layer id="13" name="__module.model.model.backbone.model.embedder.embedder.0.normalization/aten::add/Multiply_1" type="Const" version="opset1">
			<data element_type="f32" shape="1, 32, 1, 1" offset="1000" size="128" />
			<output>
				<port id="0" precision="FP32">
					<dim>1</dim>
					<dim>32</dim>
					<dim>1</dim>
					<dim>1</dim>
				</port>
			</output>
		</layer>
		<layer id="14" name="__module.model.model.backbone.model.embedder.embedder.0.normalization/aten::add/Add_1" type="Add" version="opset1">
			<data auto_broadcast="numpy" />
			<input>
				<port id="0" precision="FP32">
					<dim>-1</dim>
					<dim>32</dim>
					<dim>-1</dim>
					<dim>-1</dim>
				</port>
				<port id="1" precision="FP32">
					<dim>1</dim>
					<dim>32</dim>
					<dim>1</dim>
					<dim>1</dim>
				</port>
			</input>
			<output>
				<port id="2" precision="FP32" names="208,input.1">
					<dim>-1</dim>
					<dim>32</dim>
					<dim>-1</dim>
					<dim>-1</dim>
				</port>
			</output>
		</layer>
		<layer id="15" name="__module.model.model.backbone.model.embedder.embedder.0.activation/aten::relu/Relu" type="ReLU" version="opset1">
			<input>
				<port id="0" precision="FP32">
					<dim>-1</dim>
					<dim>32</dim>
					<dim>-1</dim>
					<dim>-1</dim>
				</port>
			</input>
			<output>
				<port id="1" precision="FP32" names="209,input.3">
					<dim>-1</dim>
					<dim>32</dim>
					<dim>-1</dim>
					<dim>-1</dim>
				</port>
			</output>
		</layer>
		<layer id="16" name="__module.model.model.backbone.model.embedder.embedder.0.activation/aten::relu/Relu/fq_output_0/input_low" type="Const" version="opset1">
			<data element_type="f32" shape="" offset="0" size="4" />
			<output>
				<port id="0" precision="FP32" />
			</output>
		</layer>
		<layer id="17" name="__module.model.model.backbone.model.embedder.embedder.0.activation/aten::relu/Relu/fq_output_0/input_high" type="Const" version="opset1">
			<data element_type="f32" shape="" offset="1128" size="4" />
			<output>
				<port id="0" precision="FP32" />
			</output>
		</layer>
		<layer id="18" name="__module.model.model.backbone.model.embedder.embedder.0.activation/aten::relu/Relu/fq_output_0/output_low" type="Const" version="opset1">
			<data element_type="f32" shape="" offset="0" size="4" />
			<output>
				<port id="0" precision="FP32" />
			</output>
		</layer>
		<layer id="19" name="__module.model.model.backbone.model.embedder.embedder.0.activation/aten::relu/Relu/fq_output_0/output_high" type="Const" version="opset1">
			<data element_type="f32" shape="" offset="1128" size="4" />
			<output>
				<port id="0" precision="FP32" />
			</output>
		</layer>
		<layer id="20" name="__module.model.model.backbone.model.embedder.embedder.0.activation/aten::relu/Relu/fq_output_0" type="FakeQuantize" version="opset1">
			<data levels="256" auto_broadcast="numpy" />
			<input>
				<port id="0" precision="FP32">
					<dim>-1</dim>
					<dim>32</dim>
					<dim>-1</dim>
					<dim>-1</dim>
				</port>
				<port id="1" precision="FP32" />
				<port id="2" precision="FP32" />
				<port id="3" precision="FP32" />
				<port id="4" precision="FP32" />
			</input>
			<output>
				<port id="5" precision="FP32">
					<dim>-1</dim>
					<dim>32</dim>
					<dim>-1</dim>
					<dim>-1</dim>
				</port>
			</output>
		</layer>
		<layer id="21" name="Constant_4367734" type="Const" version="opset1">
			<data element_type="i8" shape="32, 32, 3, 3" offset="1132" size="9216" />
			<output>
				<port id="0" precision="I8">
					<dim>32</dim>
					<dim>32</dim>
					<dim>3</dim>
					<dim>3</dim>
				</port>
			</output>
		</layer>
		<layer id="22" name="Convert_4367735" type="Convert" version="opset1">
			<data destination_type="f32" />
			<input>
				<port id="0" precision="I8">
					<dim>32</dim>
					<dim>32</dim>
					<dim>3</dim>
					<dim>3</dim>
				</port>
			</input>
			<output>
				<port id="1" precision="FP32">
					<dim>32</dim>
					<dim>32</dim>
					<dim>3</dim>
					<dim>3</dim>
				</port>
			</output>
		</layer>
		<layer id="23" name="Constant_4367736" type="Const" version="opset1">
			<data element_type="f32" shape="32, 1, 1, 1" offset="10348" size="128" />
			<output>
				<port id="0" precision="FP32">
					<dim>32</dim>
					<dim>1</dim>
					<dim>1</dim>
					<dim>1</dim>
				</port>
			</output>
		</layer>
		<layer id="24" name="__module.model.model.backbone.model.embedder.embedder.1.normalization/aten::mul/Multiply_1/fq_weights_1" type="Multiply" version="opset1">
			<data auto_broadcast="numpy" />
			<input>
				<port id="0" precision="FP32">
					<dim>32</dim>
					<dim>32</dim>
					<dim>3</dim>
					<dim>3</dim>
				</port>
				<port id="1" precision="FP32">
					<dim>32</dim>
					<dim>1</dim>
					<dim>1</dim>
					<dim>1</dim>
				</port>
			</input>
			<output>
				<port id="2" precision="FP32">
					<dim>32</dim>
					<dim>32</dim>
					<dim>3</dim>
					<dim>3</dim>
				</port>
			</output>
		</layer>
		<layer id="25" name="__module.model.model.backbone.model.embedder.embedder.1.normalization/aten::mul/Multiply_1" type="Convolution" version="opset1">
			<data strides="1, 1" dilations="1, 1" pads_begin="1, 1" pads_end="1, 1" auto_pad="explicit" />
			<input>
				<port id="0" precision="FP32">
					<dim>-1</dim>
					<dim>32</dim>
					<dim>-1</dim>
					<dim>-1</dim>
				</port>
				<port id="1" precision="FP32">
					<dim>32</dim>
					<dim>32</dim>
					<dim>3</dim>
					<dim>3</dim>
				</port>
			</input>
			<output>
				<port id="2" precision="FP32" names="235">
					<dim>-1</dim>
					<dim>32</dim>
					<dim>-1</dim>
					<dim>-1</dim>
				</port>
			</output>
		</layer>
		<layer id="26" name="__module.model.model.backbone.model.embedder.embedder.1.normalization/aten::add/Multiply_1" type="Const" version="opset1">
			<data element_type="f32" shape="1, 32, 1, 1" offset="10476" size="128" />
			<output>
				<port id="0" precision="FP32">
					<dim>1</dim>
					<dim>32</dim>
					<dim>1</dim>
					<dim>1</dim>
				</port>
			</output>
		</layer>
		<layer id="27" name="__module.model.model.backbone.model.embedder.embedder.1.normalization/aten::add/Add_1" type="Add" version="opset1">
			<data auto_broadcast="numpy" />
			<input>
				<port id="0" precision="FP32">
					<dim>-1</dim>
					<dim>32</dim>
					<dim>-1</dim>
					<dim>-1</dim>
				</port>
				<port id="1" precision="FP32">
					<dim>1</dim>
					<dim>32</dim>
					<dim>1</dim>
					<dim>1</dim>
				</port>
			</input>
			<output>
				<port id="2" precision="FP32" names="236,input.5">
					<dim>-1</dim>
					<dim>32</dim>
					<dim>-1</dim>
					<dim>-1</dim>
				</port>
			</output>
		</layer>
		<layer id="28" name="__module.model.model.backbone.model.embedder.embedder.1.activation/aten::relu/Relu" type="ReLU" version="opset1">
			<input>
				<port id="0" precision="FP32">
					<dim>-1</dim>
					<dim>32</dim>
					<dim>-1</dim>
					<dim>-1</dim>
				</port>
			</input>
			<output>
				<port id="1" precision="FP32" names="237,input.7">
					<dim>-1</dim>
					<dim>32</dim>
					<dim>-1</dim>
					<dim>-1</dim>
				</port>
			</output>
		</layer>
		<layer id="29" name="__module.model.model.backbone.model.embedder.embedder.1.activation/aten::relu/Relu/fq_output_0/input_low" type="Const" version="opset1">
			<data element_type="f32" shape="" offset="0" size="4" />
			<output>
				<port id="0" precision="FP32" />
			</output>
		</layer>
		<layer id="30" name="__module.model.model.backbone.model.embedder.embedder.1.activation/aten::relu/Relu/fq_output_0/input_high" type="Const" version="opset1">
			<data element_type="f32" shape="" offset="10604" size="4" />
			<output>
				<port id="0" precision="FP32" />
			</output>
		</layer>
		<layer id="31" name="__module.model.model.backbone.model.embedder.embedder.1.activation/aten::relu/Relu/fq_output_0/output_low" type="Const" version="opset1">
			<data element_type="f32" shape="" offset="0" size="4" />
			<output>
				<port id="0" precision="FP32" />
			</output>
		</layer>
		<layer id="32" name="__module.model.model.backbone.model.embedder.embedder.1.activation/aten::relu/Relu/fq_output_0/output_high" type="Const" version="opset1">
			<data element_type="f32" shape="" offset="10604" size="4" />
			<output>
				<port id="0" precision="FP32" />
			</output>
		</layer>
		<layer id="33" name="__module.model.model.backbone.model.embedder.embedder.1.activation/aten::relu/Relu/fq_output_0" type="FakeQuantize" version="opset1">
			<data levels="256" auto_broadcast="numpy" />
			<input>
				<port id="0" precision="FP32">
					<dim>-1</dim>
					<dim>32</dim>
					<dim>-1</dim>
					<dim>-1</dim>
				</port>
				<port id="1" precision="FP32" />
				<port id="2" precision="FP32" />
				<port id="3" precision="FP32" />
				<port id="4" precision="FP32" />
			</input>
			<output>
				<port id="5" precision="FP32">
					<dim>-1</dim>
					<dim>32</dim>
					<dim>-1</dim>
					<dim>-1</dim>
				</port>
			</output>
		</layer>
		<layer id="34" name="Constant_4367738" type="Const" version="opset1">
			<data element_type="i8" shape="64, 32, 3, 3" offset="10608" size="18432" />
			<output>
				<port id="0" precision="I8">
					<dim>64</dim>
					<dim>32</dim>
					<dim>3</dim>
					<dim>3</dim>
				</port>
			</output>
		</layer>
		<layer id="35" name="Convert_4367739" type="Convert" version="opset1">
			<data destination_type="f32" />
			<input>
				<port id="0" precision="I8">
					<dim>64</dim>
					<dim>32</dim>
					<dim>3</dim>
					<dim>3</dim>
				</port>
			</input>
			<output>
				<port id="1" precision="FP32">
					<dim>64</dim>
					<dim>32</dim>
					<dim>3</dim>
					<dim>3</dim>
				</port>
			</output>
		</layer>
		<layer id="36" name="Constant_4367740" type="Const" version="opset1">
			<data element_type="f32" shape="64, 1, 1, 1" offset="29040" size="256" />
			<output>
				<port id="0" precision="FP32">
					<dim>64</dim>
					<dim>1</dim>
					<dim>1</dim>
					<dim>1</dim>
				</port>
			</output>
		</layer>
		<layer id="37" name="__module.model.model.backbone.model.embedder.embedder.2.normalization/aten::mul/Multiply_1/fq_weights_1" type="Multiply" version="opset1">
			<data auto_broadcast="numpy" />
			<input>
				<port id="0" precision="FP32">
					<dim>64</dim>
					<dim>32</dim>
					<dim>3</dim>
					<dim>3</dim>
				</port>
				<port id="1" precision="FP32">
					<dim>64</dim>
					<dim>1</dim>
					<dim>1</dim>
					<dim>1</dim>
				</port>
			</input>
			<output>
				<port id="2" precision="FP32">
					<dim>64</dim>
					<dim>32</dim>
					<dim>3</dim>
					<dim>3</dim>
				</port>
			</output>
		</layer>
		<layer id="38" name="__module.model.model.backbone.model.embedder.embedder.2.normalization/aten::mul/Multiply_1" type="Convolution" version="opset1">
			<data strides="1, 1" dilations="1, 1" pads_begin="1, 1" pads_end="1, 1" auto_pad="explicit" />
			<input>
				<port id="0" precision="FP32">
					<dim>-1</dim>
					<dim>32</dim>
					<dim>-1</dim>
					<dim>-1</dim>
				</port>
				<port id="1" precision="FP32">
					<dim>64</dim>
					<dim>32</dim>
					<dim>3</dim>
					<dim>3</dim>
				</port>
			</input>
			<output>
				<port id="2" precision="FP32" names="263">
					<dim>-1</dim>
					<dim>64</dim>
					<dim>-1</dim>
					<dim>-1</dim>
				</port>
			</output>
		</layer>
		<layer id="39" name="__module.model.model.backbone.model.embedder.embedder.2.normalization/aten::add/Multiply_1" type="Const" version="opset1">
			<data element_type="f32" shape="1, 64, 1, 1" offset="29296" size="256" />
			<output>
				<port id="0" precision="FP32">
					<dim>1</dim>
					<dim>64</dim>
					<dim>1</dim>
					<dim>1</dim>
				</port>
			</output>
		</layer>
		<layer id="40" name="__module.model.model.backbone.model.embedder.embedder.2.normalization/aten::add/Add_1" type="Add" version="opset1">
			<data auto_broadcast="numpy" />
			<input>
				<port id="0" precision="FP32">
					<dim>-1</dim>
					<dim>64</dim>
					<dim>-1</dim>
					<dim>-1</dim>
				</port>
				<port id="1" precision="FP32">
					<dim>1</dim>
					<dim>64</dim>
					<dim>1</dim>
					<dim>1</dim>
				</port>
			</input>
			<output>
				<port id="2" precision="FP32" names="264,input.9">
					<dim>-1</dim>
					<dim>64</dim>
					<dim>-1</dim>
					<dim>-1</dim>
				</port>
			</output>
		</layer>
		<layer id="41" name="__module.model.model.backbone.model.embedder.embedder.2.activation/aten::relu/Relu" type="ReLU" version="opset1">
			<input>
				<port id="0" precision="FP32">
					<dim>-1</dim>
					<dim>64</dim>
					<dim>-1</dim>
					<dim>-1</dim>
				</port>
			</input>
			<output>
				<port id="1" precision="FP32" names="265,input.11">
					<dim>-1</dim>
					<dim>64</dim>
					<dim>-1</dim>
					<dim>-1</dim>
				</port>
			</output>
		</layer>
		<layer id="42" name="__module.model.model.backbone.model.embedder.embedder.2.activation/aten::relu/Relu/fq_output_0/input_low" type="Const" version="opset1">
			<data element_type="f32" shape="" offset="0" size="4" />
			<output>
				<port id="0" precision="FP32" />
			</output>
		</layer>
		<layer id="43" name="__module.model.model.backbone.model.embedder.embedder.2.activation/aten::relu/Relu/fq_output_0/input_high" type="Const" version="opset1">
			<data element_type="f32" shape="" offset="29552" size="4" />
			<output>
				<port id="0" precision="FP32" />
			</output>
		</layer>
		<layer id="44" name="__module.model.model.backbone.model.embedder.embedder.2.activation/aten::relu/Relu/fq_output_0/output_low" type="Const" version="opset1">
			<data element_type="f32" shape="" offset="0" size="4" />
			<output>
				<port id="0" precision="FP32" />
			</output>
		</layer>
		<layer id="45" name="__module.model.model.backbone.model.embedder.embedder.2.activation/aten::relu/Relu/fq_output_0/output_high" type="Const" version="opset1">
			<data element_type="f32" shape="" offset="29552" size="4" />
			<output>
				<port id="0" precision="FP32" />
			</output>
		</layer>
		<layer id="46" name="__module.model.model.backbone.model.embedder.embedder.2.activation/aten::relu/Relu/fq_output_0" type="FakeQuantize" version="opset1">
			<data levels="256" auto_broadcast="numpy" />
			<input>
				<port id="0" precision="FP32">
					<dim>-1</dim>
					<dim>64</dim>
					<dim>-1</dim>
					<dim>-1</dim>
				</port>
				<port id="1" precision="FP32" />
				<port id="2" precision="FP32" />
				<port id="3" precision="FP32" />
				<port id="4" precision="FP32" />
			</input>
			<output>
				<port id="5" precision="FP32">
					<dim>-1</dim>
					<dim>64</dim>
					<dim>-1</dim>
					<dim>-1</dim>
				</port>
			</output>
		</layer>
		<layer id="47" name="__module.model.model.backbone.model.embedder.pooler/aten::max_pool2d/MaxPool" type="MaxPool" version="opset14">
			<data strides="2, 2" dilations="1, 1" pads_begin="1, 1" pads_end="1, 1" kernel="3, 3" rounding_type="floor" auto_pad="explicit" index_element_type="i64" axis="2" />
			<input>
				<port id="0" precision="FP32">
					<dim>-1</dim>
					<dim>64</dim>
					<dim>-1</dim>
					<dim>-1</dim>
				</port>
			</input>
			<output>
				<port id="1" precision="FP32" names="270,input.13">
					<dim>-1</dim>
					<dim>64</dim>
					<dim>-1</dim>
					<dim>-1</dim>
				</port>
				<port id="2" precision="I64">
					<dim>-1</dim>
					<dim>64</dim>
					<dim>-1</dim>
					<dim>-1</dim>
				</port>
			</output>
		</layer>
		<layer id="48" name="Constant_4367742" type="Const" version="opset1">
			<data element_type="i8" shape="64, 64, 1, 1" offset="29556" size="4096" />
			<output>
				<port id="0" precision="I8">
					<dim>64</dim>
					<dim>64</dim>
					<dim>1</dim>
					<dim>1</dim>
				</port>
			</output>
		</layer>
		<layer id="49" name="Convert_4367743" type="Convert" version="opset1">
			<data destination_type="f32" />
			<input>
				<port id="0" precision="I8">
					<dim>64</dim>
					<dim>64</dim>
					<dim>1</dim>
					<dim>1</dim>
				</port>
			</input>
			<output>
				<port id="1" precision="FP32">
					<dim>64</dim>
					<dim>64</dim>
					<dim>1</dim>
					<dim>1</dim>
				</port>
			</output>
		</layer>
		<layer id="50" name="Constant_4367744" type="Const" version="opset1">
			<data element_type="f32" shape="64, 1, 1, 1" offset="33652" size="256" />
			<output>
				<port id="0" precision="FP32">
					<dim>64</dim>
					<dim>1</dim>
					<dim>1</dim>
					<dim>1</dim>
				</port>
			</output>
		</layer>
		<layer id="51" name="__module.model.model.backbone.model.encoder.stages.0.layers.0.layer.0.normalization/aten::mul/Multiply_1/fq_weights_1" type="Multiply" version="opset1">
			<data auto_broadcast="numpy" />
			<input>
				<port id="0" precision="FP32">
					<dim>64</dim>
					<dim>64</dim>
					<dim>1</dim>
					<dim>1</dim>
				</port>
				<port id="1" precision="FP32">
					<dim>64</dim>
					<dim>1</dim>
					<dim>1</dim>
					<dim>1</dim>
				</port>
			</input>
			<output>
				<port id="2" precision="FP32">
					<dim>64</dim>
					<dim>64</dim>
					<dim>1</dim>
					<dim>1</dim>
				</port>
			</output>
		</layer>
		<layer id="52" name="__module.model.model.backbone.model.encoder.stages.0.layers.0.layer.0.normalization/aten::mul/Multiply_1" type="Convolution" version="opset1">
			<data strides="1, 1" dilations="1, 1" pads_begin="0, 0" pads_end="0, 0" auto_pad="explicit" />
			<input>
				<port id="0" precision="FP32">
					<dim>-1</dim>
					<dim>64</dim>
					<dim>-1</dim>
					<dim>-1</dim>
				</port>
				<port id="1" precision="FP32">
					<dim>64</dim>
					<dim>64</dim>
					<dim>1</dim>
					<dim>1</dim>
				</port>
			</input>
			<output>
				<port id="2" precision="FP32" names="315">
					<dim>-1</dim>
					<dim>64</dim>
					<dim>-1</dim>
					<dim>-1</dim>
				</port>
			</output>
		</layer>
		<layer id="53" name="__module.model.model.backbone.model.encoder.stages.0.layers.0.layer.0.normalization/aten::add/Multiply_1" type="Const" version="opset1">
			<data element_type="f32" shape="1, 64, 1, 1" offset="33908" size="256" />
			<output>
				<port id="0" precision="FP32">
					<dim>1</dim>
					<dim>64</dim>
					<dim>1</dim>
					<dim>1</dim>
				</port>
			</output>
		</layer>
		<layer id="54" name="__module.model.model.backbone.model.encoder.stages.0.layers.0.layer.0.normalization/aten::add/Add_1" type="Add" version="opset1">
			<data auto_broadcast="numpy" />
			<input>
				<port id="0" precision="FP32">
					<dim>-1</dim>
					<dim>64</dim>
					<dim>-1</dim>
					<dim>-1</dim>
				</port>
				<port id="1" precision="FP32">
					<dim>1</dim>
					<dim>64</dim>
					<dim>1</dim>
					<dim>1</dim>
				</port>
			</input>
			<output>
				<port id="2" precision="FP32" names="316,input.15">
					<dim>-1</dim>
					<dim>64</dim>
					<dim>-1</dim>
					<dim>-1</dim>
				</port>
			</output>
		</layer>
		<layer id="55" name="__module.model.model.backbone.model.encoder.stages.0.layers.0.layer.0.activation/aten::relu/Relu" type="ReLU" version="opset1">
			<input>
				<port id="0" precision="FP32">
					<dim>-1</dim>
					<dim>64</dim>
					<dim>-1</dim>
					<dim>-1</dim>
				</port>
			</input>
			<output>
				<port id="1" precision="FP32" names="317,input.17">
					<dim>-1</dim>
					<dim>64</dim>
					<dim>-1</dim>
					<dim>-1</dim>
				</port>
			</output>
		</layer>
		<layer id="56" name="__module.model.model.backbone.model.encoder.stages.0.layers.0.layer.0.activation/aten::relu/Relu/fq_output_0/input_low" type="Const" version="opset1">
			<data element_type="f32" shape="" offset="0" size="4" />
			<output>
				<port id="0" precision="FP32" />
			</output>
		</layer>
		<layer id="57" name="__module.model.model.backbone.model.encoder.stages.0.layers.0.layer.0.activation/aten::relu/Relu/fq_output_0/input_high" type="Const" version="opset1">
			<data element_type="f32" shape="" offset="34164" size="4" />
			<output>
				<port id="0" precision="FP32" />
			</output>
		</layer>
		<layer id="58" name="__module.model.model.backbone.model.encoder.stages.0.layers.0.layer.0.activation/aten::relu/Relu/fq_output_0/output_low" type="Const" version="opset1">
			<data element_type="f32" shape="" offset="0" size="4" />
			<output>
				<port id="0" precision="FP32" />
			</output>
		</layer>
		<layer id="59" name="__module.model.model.backbone.model.encoder.stages.0.layers.0.layer.0.activation/aten::relu/Relu/fq_output_0/output_high" type="Const" version="opset1">
			<data element_type="f32" shape="" offset="34164" size="4" />
			<output>
				<port id="0" precision="FP32" />
			</output>
		</layer>
		<layer id="60" name="__module.model.model.backbone.model.encoder.stages.0.layers.0.layer.0.activation/aten::relu/Relu/fq_output_0" type="FakeQuantize" version="opset1">
			<data levels="256" auto_broadcast="numpy" />
			<input>
				<port id="0" precision="FP32">
					<dim>-1</dim>
					<dim>64</dim>
					<dim>-1</dim>
					<dim>-1</dim>
				</port>
				<port id="1" precision="FP32" />
				<port id="2" precision="FP32" />
				<port id="3" precision="FP32" />
				<port id="4" precision="FP32" />
			</input>
			<output>
				<port id="5" precision="FP32">
					<dim>-1</dim>
					<dim>64</dim>
					<dim>-1</dim>
					<dim>-1</dim>
				</port>
			</output>
		</layer>
		<layer id="61" name="Constant_4367746" type="Const" version="opset1">
			<data element_type="i8" shape="64, 64, 3, 3" offset="34168" size="36864" />
			<output>
				<port id="0" precision="I8">
					<dim>64</dim>
					<dim>64</dim>
					<dim>3</dim>
					<dim>3</dim>
				</port>
			</output>
		</layer>
		<layer id="62" name="Convert_4367747" type="Convert" version="opset1">
			<data destination_type="f32" />
			<input>
				<port id="0" precision="I8">
					<dim>64</dim>
					<dim>64</dim>
					<dim>3</dim>
					<dim>3</dim>
				</port>
			</input>
			<output>
				<port id="1" precision="FP32">
					<dim>64</dim>
					<dim>64</dim>
					<dim>3</dim>
					<dim>3</dim>
				</port>
			</output>
		</layer>
		<layer id="63" name="Constant_4367748" type="Const" version="opset1">
			<data element_type="f32" shape="64, 1, 1, 1" offset="71032" size="256" />
			<output>
				<port id="0" precision="FP32">
					<dim>64</dim>
					<dim>1</dim>
					<dim>1</dim>
					<dim>1</dim>
				</port>
			</output>
		</layer>
		<layer id="64" name="__module.model.model.backbone.model.encoder.stages.0.layers.0.layer.1.normalization/aten::mul/Multiply_1/fq_weights_1" type="Multiply" version="opset1">
			<data auto_broadcast="numpy" />
			<input>
				<port id="0" precision="FP32">
					<dim>64</dim>
					<dim>64</dim>
					<dim>3</dim>
					<dim>3</dim>
				</port>
				<port id="1" precision="FP32">
					<dim>64</dim>
					<dim>1</dim>
					<dim>1</dim>
					<dim>1</dim>
				</port>
			</input>
			<output>
				<port id="2" precision="FP32">
					<dim>64</dim>
					<dim>64</dim>
					<dim>3</dim>
					<dim>3</dim>
				</port>
			</output>
		</layer>
		<layer id="65" name="__module.model.model.backbone.model.encoder.stages.0.layers.0.layer.1.normalization/aten::mul/Multiply_1" type="Convolution" version="opset1">
			<data strides="1, 1" dilations="1, 1" pads_begin="1, 1" pads_end="1, 1" auto_pad="explicit" />
			<input>
				<port id="0" precision="FP32">
					<dim>-1</dim>
					<dim>64</dim>
					<dim>-1</dim>
					<dim>-1</dim>
				</port>
				<port id="1" precision="FP32">
					<dim>64</dim>
					<dim>64</dim>
					<dim>3</dim>
					<dim>3</dim>
				</port>
			</input>
			<output>
				<port id="2" precision="FP32" names="343">
					<dim>-1</dim>
					<dim>64</dim>
					<dim>-1</dim>
					<dim>-1</dim>
				</port>
			</output>
		</layer>
		<layer id="66" name="__module.model.model.backbone.model.encoder.stages.0.layers.0.layer.1.normalization/aten::add/Multiply_1" type="Const" version="opset1">
			<data element_type="f32" shape="1, 64, 1, 1" offset="71288" size="256" />
			<output>
				<port id="0" precision="FP32">
					<dim>1</dim>
					<dim>64</dim>
					<dim>1</dim>
					<dim>1</dim>
				</port>
			</output>
		</layer>
		<layer id="67" name="__module.model.model.backbone.model.encoder.stages.0.layers.0.layer.1.normalization/aten::add/Add_1" type="Add" version="opset1">
			<data auto_broadcast="numpy" />
			<input>
				<port id="0" precision="FP32">
					<dim>-1</dim>
					<dim>64</dim>
					<dim>-1</dim>
					<dim>-1</dim>
				</port>
				<port id="1" precision="FP32">
					<dim>1</dim>
					<dim>64</dim>
					<dim>1</dim>
					<dim>1</dim>
				</port>
			</input>
			<output>
				<port id="2" precision="FP32" names="344,input.19">
					<dim>-1</dim>
					<dim>64</dim>
					<dim>-1</dim>
					<dim>-1</dim>
				</port>
			</output>
		</layer>
		<layer id="68" name="__module.model.model.backbone.model.encoder.stages.0.layers.0.layer.1.activation/aten::relu/Relu" type="ReLU" version="opset1">
			<input>
				<port id="0" precision="FP32">
					<dim>-1</dim>
					<dim>64</dim>
					<dim>-1</dim>
					<dim>-1</dim>
				</port>
			</input>
			<output>
				<port id="1" precision="FP32" names="345,input.21">
					<dim>-1</dim>
					<dim>64</dim>
					<dim>-1</dim>
					<dim>-1</dim>
				</port>
			</output>
		</layer>
		<layer id="69" name="__module.model.model.backbone.model.encoder.stages.0.layers.0.layer.1.activation/aten::relu/Relu/fq_output_0/input_low" type="Const" version="opset1">
			<data element_type="f32" shape="" offset="0" size="4" />
			<output>
				<port id="0" precision="FP32" />
			</output>
		</layer>
		<layer id="70" name="__module.model.model.backbone.model.encoder.stages.0.layers.0.layer.1.activation/aten::relu/Relu/fq_output_0/input_high" type="Const" version="opset1">
			<data element_type="f32" shape="" offset="71544" size="4" />
			<output>
				<port id="0" precision="FP32" />
			</output>
		</layer>
		<layer id="71" name="__module.model.model.backbone.model.encoder.stages.0.layers.0.layer.1.activation/aten::relu/Relu/fq_output_0/output_low" type="Const" version="opset1">
			<data element_type="f32" shape="" offset="0" size="4" />
			<output>
				<port id="0" precision="FP32" />
			</output>
		</layer>
		<layer id="72" name="__module.model.model.backbone.model.encoder.stages.0.layers.0.layer.1.activation/aten::relu/Relu/fq_output_0/output_high" type="Const" version="opset1">
			<data element_type="f32" shape="" offset="71544" size="4" />
			<output>
				<port id="0" precision="FP32" />
			</output>
		</layer>
		<layer id="73" name="__module.model.model.backbone.model.encoder.stages.0.layers.0.layer.1.activation/aten::relu/Relu/fq_output_0" type="FakeQuantize" version="opset1">
			<data levels="256" auto_broadcast="numpy" />
			<input>
				<port id="0" precision="FP32">
					<dim>-1</dim>
					<dim>64</dim>
					<dim>-1</dim>
					<dim>-1</dim>
				</port>
				<port id="1" precision="FP32" />
				<port id="2" precision="FP32" />
				<port id="3" precision="FP32" />
				<port id="4" precision="FP32" />
			</input>
			<output>
				<port id="5" precision="FP32">
					<dim>-1</dim>
					<dim>64</dim>
					<dim>-1</dim>
					<dim>-1</dim>
				</port>
			</output>
		</layer>
		<layer id="74" name="Constant_4367750" type="Const" version="opset1">
			<data element_type="i8" shape="256, 64, 1, 1" offset="71548" size="16384" />
			<output>
				<port id="0" precision="I8">
					<dim>256</dim>
					<dim>64</dim>
					<dim>1</dim>
					<dim>1</dim>
				</port>
			</output>
		</layer>
		<layer id="75" name="Convert_4367751" type="Convert" version="opset1">
			<data destination_type="f32" />
			<input>
				<port id="0" precision="I8">
					<dim>256</dim>
					<dim>64</dim>
					<dim>1</dim>
					<dim>1</dim>
				</port>
			</input>
			<output>
				<port id="1" precision="FP32">
					<dim>256</dim>
					<dim>64</dim>
					<dim>1</dim>
					<dim>1</dim>
				</port>
			</output>
		</layer>
		<layer id="76" name="Constant_4367752" type="Const" version="opset1">
			<data element_type="f32" shape="256, 1, 1, 1" offset="87932" size="1024" />
			<output>
				<port id="0" precision="FP32">
					<dim>256</dim>
					<dim>1</dim>
					<dim>1</dim>
					<dim>1</dim>
				</port>
			</output>
		</layer>
		<layer id="77" name="__module.model.model.backbone.model.encoder.stages.0.layers.0.layer.2.normalization/aten::mul/Multiply_1/fq_weights_1" type="Multiply" version="opset1">
			<data auto_broadcast="numpy" />
			<input>
				<port id="0" precision="FP32">
					<dim>256</dim>
					<dim>64</dim>
					<dim>1</dim>
					<dim>1</dim>
				</port>
				<port id="1" precision="FP32">
					<dim>256</dim>
					<dim>1</dim>
					<dim>1</dim>
					<dim>1</dim>
				</port>
			</input>
			<output>
				<port id="2" precision="FP32">
					<dim>256</dim>
					<dim>64</dim>
					<dim>1</dim>
					<dim>1</dim>
				</port>
			</output>
		</layer>
		<layer id="78" name="__module.model.model.backbone.model.encoder.stages.0.layers.0.layer.2.normalization/aten::mul/Multiply_1" type="Convolution" version="opset1">
			<data strides="1, 1" dilations="1, 1" pads_begin="0, 0" pads_end="0, 0" auto_pad="explicit" />
			<input>
				<port id="0" precision="FP32">
					<dim>-1</dim>
					<dim>64</dim>
					<dim>-1</dim>
					<dim>-1</dim>
				</port>
				<port id="1" precision="FP32">
					<dim>256</dim>
					<dim>64</dim>
					<dim>1</dim>
					<dim>1</dim>
				</port>
			</input>
			<output>
				<port id="2" precision="FP32" names="371">
					<dim>-1</dim>
					<dim>256</dim>
					<dim>-1</dim>
					<dim>-1</dim>
				</port>
			</output>
		</layer>
		<layer id="79" name="__module.model.model.backbone.model.encoder.stages.0.layers.0.layer.2.normalization/aten::add/Multiply_1" type="Const" version="opset1">
			<data element_type="f32" shape="1, 256, 1, 1" offset="88956" size="1024" />
			<output>
				<port id="0" precision="FP32">
					<dim>1</dim>
					<dim>256</dim>
					<dim>1</dim>
					<dim>1</dim>
				</port>
			</output>
		</layer>
		<layer id="80" name="__module.model.model.backbone.model.encoder.stages.0.layers.0.layer.2.normalization/aten::add/Add_1" type="Add" version="opset1">
			<data auto_broadcast="numpy" />
			<input>
				<port id="0" precision="FP32">
					<dim>-1</dim>
					<dim>256</dim>
					<dim>-1</dim>
					<dim>-1</dim>
				</port>
				<port id="1" precision="FP32">
					<dim>1</dim>
					<dim>256</dim>
					<dim>1</dim>
					<dim>1</dim>
				</port>
			</input>
			<output>
				<port id="2" precision="FP32" names="372_1">
					<dim>-1</dim>
					<dim>256</dim>
					<dim>-1</dim>
					<dim>-1</dim>
				</port>
			</output>
		</layer>
		<layer id="81" name="__module.model.model.backbone.model.encoder.stages.0.layers.0.layer.2.normalization/aten::add/Add_1/fq_output_0/input_low" type="Const" version="opset1">
			<data element_type="f32" shape="" offset="89980" size="4" />
			<output>
				<port id="0" precision="FP32" />
			</output>
		</layer>
		<layer id="82" name="__module.model.model.backbone.model.encoder.stages.0.layers.0.layer.2.normalization/aten::add/Add_1/fq_output_0/input_high" type="Const" version="opset1">
			<data element_type="f32" shape="" offset="89984" size="4" />
			<output>
				<port id="0" precision="FP32" />
			</output>
		</layer>
		<layer id="83" name="__module.model.model.backbone.model.encoder.stages.0.layers.0.layer.2.normalization/aten::add/Add_1/fq_output_0/output_low" type="Const" version="opset1">
			<data element_type="f32" shape="" offset="89980" size="4" />
			<output>
				<port id="0" precision="FP32" />
			</output>
		</layer>
		<layer id="84" name="__module.model.model.backbone.model.encoder.stages.0.layers.0.layer.2.normalization/aten::add/Add_1/fq_output_0/output_high" type="Const" version="opset1">
			<data element_type="f32" shape="" offset="89984" size="4" />
			<output>
				<port id="0" precision="FP32" />
			</output>
		</layer>
		<layer id="85" name="__module.model.model.backbone.model.encoder.stages.0.layers.0.layer.2.normalization/aten::add/Add_1/fq_output_0" type="FakeQuantize" version="opset1">
			<data levels="256" auto_broadcast="numpy" />
			<input>
				<port id="0" precision="FP32">
					<dim>-1</dim>
					<dim>256</dim>
					<dim>-1</dim>
					<dim>-1</dim>
				</port>
				<port id="1" precision="FP32" />
				<port id="2" precision="FP32" />
				<port id="3" precision="FP32" />
				<port id="4" precision="FP32" />
			</input>
			<output>
				<port id="5" precision="FP32">
					<dim>-1</dim>
					<dim>256</dim>
					<dim>-1</dim>
					<dim>-1</dim>
				</port>
			</output>
		</layer>
		<layer id="86" name="Constant_4367754" type="Const" version="opset1">
			<data element_type="i8" shape="256, 64, 1, 1" offset="89988" size="16384" />
			<output>
				<port id="0" precision="I8">
					<dim>256</dim>
					<dim>64</dim>
					<dim>1</dim>
					<dim>1</dim>
				</port>
			</output>
		</layer>
		<layer id="87" name="Convert_4367755" type="Convert" version="opset1">
			<data destination_type="f32" />
			<input>
				<port id="0" precision="I8">
					<dim>256</dim>
					<dim>64</dim>
					<dim>1</dim>
					<dim>1</dim>
				</port>
			</input>
			<output>
				<port id="1" precision="FP32">
					<dim>256</dim>
					<dim>64</dim>
					<dim>1</dim>
					<dim>1</dim>
				</port>
			</output>
		</layer>
		<layer id="88" name="Constant_4367756" type="Const" version="opset1">
			<data element_type="f32" shape="256, 1, 1, 1" offset="106372" size="1024" />
			<output>
				<port id="0" precision="FP32">
					<dim>256</dim>
					<dim>1</dim>
					<dim>1</dim>
					<dim>1</dim>
				</port>
			</output>
		</layer>
		<layer id="89" name="__module.model.model.backbone.model.encoder.stages.0.layers.0.shortcut.normalization/aten::mul/Multiply_1/fq_weights_1" type="Multiply" version="opset1">
			<data auto_broadcast="numpy" />
			<input>
				<port id="0" precision="FP32">
					<dim>256</dim>
					<dim>64</dim>
					<dim>1</dim>
					<dim>1</dim>
				</port>
				<port id="1" precision="FP32">
					<dim>256</dim>
					<dim>1</dim>
					<dim>1</dim>
					<dim>1</dim>
				</port>
			</input>
			<output>
				<port id="2" precision="FP32">
					<dim>256</dim>
					<dim>64</dim>
					<dim>1</dim>
					<dim>1</dim>
				</port>
			</output>
		</layer>
		<layer id="90" name="__module.model.model.backbone.model.encoder.stages.0.layers.0.shortcut.normalization/aten::mul/Multiply_1" type="Convolution" version="opset1">
			<data strides="1, 1" dilations="1, 1" pads_begin="0, 0" pads_end="0, 0" auto_pad="explicit" />
			<input>
				<port id="0" precision="FP32">
					<dim>-1</dim>
					<dim>64</dim>
					<dim>-1</dim>
					<dim>-1</dim>
				</port>
				<port id="1" precision="FP32">
					<dim>256</dim>
					<dim>64</dim>
					<dim>1</dim>
					<dim>1</dim>
				</port>
			</input>
			<output>
				<port id="2" precision="FP32" names="398">
					<dim>-1</dim>
					<dim>256</dim>
					<dim>-1</dim>
					<dim>-1</dim>
				</port>
			</output>
		</layer>
		<layer id="91" name="__module.model.model.backbone.model.encoder.stages.0.layers.0.shortcut.normalization/aten::add/Multiply_1" type="Const" version="opset1">
			<data element_type="f32" shape="1, 256, 1, 1" offset="107396" size="1024" />
			<output>
				<port id="0" precision="FP32">
					<dim>1</dim>
					<dim>256</dim>
					<dim>1</dim>
					<dim>1</dim>
				</port>
			</output>
		</layer>
		<layer id="92" name="__module.model.model.backbone.model.encoder.stages.0.layers.0.shortcut.normalization/aten::add/Add_1" type="Add" version="opset1">
			<data auto_broadcast="numpy" />
			<input>
				<port id="0" precision="FP32">
					<dim>-1</dim>
					<dim>256</dim>
					<dim>-1</dim>
					<dim>-1</dim>
				</port>
				<port id="1" precision="FP32">
					<dim>1</dim>
					<dim>256</dim>
					<dim>1</dim>
					<dim>1</dim>
				</port>
			</input>
			<output>
				<port id="2" precision="FP32" names="399,residual.1">
					<dim>-1</dim>
					<dim>256</dim>
					<dim>-1</dim>
					<dim>-1</dim>
				</port>
			</output>
		</layer>
		<layer id="93" name="__module.model.model.backbone.model.encoder.stages.0.layers.0.shortcut.normalization/aten::add/Add_1/fq_output_0/input_low" type="Const" version="opset1">
			<data element_type="f32" shape="" offset="108420" size="4" />
			<output>
				<port id="0" precision="FP32" />
			</output>
		</layer>
		<layer id="94" name="__module.model.model.backbone.model.encoder.stages.0.layers.0.shortcut.normalization/aten::add/Add_1/fq_output_0/input_high" type="Const" version="opset1">
			<data element_type="f32" shape="" offset="108424" size="4" />
			<output>
				<port id="0" precision="FP32" />
			</output>
		</layer>
		<layer id="95" name="__module.model.model.backbone.model.encoder.stages.0.layers.0.shortcut.normalization/aten::add/Add_1/fq_output_0/output_low" type="Const" version="opset1">
			<data element_type="f32" shape="" offset="108420" size="4" />
			<output>
				<port id="0" precision="FP32" />
			</output>
		</layer>
		<layer id="96" name="__module.model.model.backbone.model.encoder.stages.0.layers.0.shortcut.normalization/aten::add/Add_1/fq_output_0/output_high" type="Const" version="opset1">
			<data element_type="f32" shape="" offset="108424" size="4" />
			<output>
				<port id="0" precision="FP32" />
			</output>
		</layer>
		<layer id="97" name="__module.model.model.backbone.model.encoder.stages.0.layers.0.shortcut.normalization/aten::add/Add_1/fq_output_0" type="FakeQuantize" version="opset1">
			<data levels="256" auto_broadcast="numpy" />
			<input>
				<port id="0" precision="FP32">
					<dim>-1</dim>
					<dim>256</dim>
					<dim>-1</dim>
					<dim>-1</dim>
				</port>
				<port id="1" precision="FP32" />
				<port id="2" precision="FP32" />
				<port id="3" precision="FP32" />
				<port id="4" precision="FP32" />
			</input>
			<output>
				<port id="5" precision="FP32">
					<dim>-1</dim>
					<dim>256</dim>
					<dim>-1</dim>
					<dim>-1</dim>
				</port>
			</output>
		</layer>
		<layer id="98" name="__module.model.model.backbone.model.encoder.stages.0.layers.0/aten::add_/Add" type="Add" version="opset1">
			<data auto_broadcast="numpy" />
			<input>
				<port id="0" precision="FP32">
					<dim>-1</dim>
					<dim>256</dim>
					<dim>-1</dim>
					<dim>-1</dim>
				</port>
				<port id="1" precision="FP32">
					<dim>-1</dim>
					<dim>256</dim>
					<dim>-1</dim>
					<dim>-1</dim>
				</port>
			</input>
			<output>
				<port id="2" precision="FP32" names="372,hidden_state.1">
					<dim>-1</dim>
					<dim>256</dim>
					<dim>-1</dim>
					<dim>-1</dim>
				</port>
			</output>
		</layer>
		<layer id="99" name="__module.model.model.backbone.model.encoder.stages.0.layers.0.activation/aten::relu/Relu" type="ReLU" version="opset1">
			<input>
				<port id="0" precision="FP32">
					<dim>-1</dim>
					<dim>256</dim>
					<dim>-1</dim>
					<dim>-1</dim>
				</port>
			</input>
			<output>
				<port id="1" precision="FP32" names="401,input.25">
					<dim>-1</dim>
					<dim>256</dim>
					<dim>-1</dim>
					<dim>-1</dim>
				</port>
			</output>
		</layer>
		<layer id="100" name="__module.model.model.backbone.model.encoder.stages.0.layers.0.activation/aten::relu/Relu/fq_output_0/input_low" type="Const" version="opset1">
			<data element_type="f32" shape="" offset="0" size="4" />
			<output>
				<port id="0" precision="FP32" />
			</output>
		</layer>
		<layer id="101" name="__module.model.model.backbone.model.encoder.stages.0.layers.0.activation/aten::relu/Relu/fq_output_0/input_high" type="Const" version="opset1">
			<data element_type="f32" shape="" offset="108428" size="4" />
			<output>
				<port id="0" precision="FP32" />
			</output>
		</layer>
		<layer id="102" name="__module.model.model.backbone.model.encoder.stages.0.layers.0.activation/aten::relu/Relu/fq_output_0/output_low" type="Const" version="opset1">
			<data element_type="f32" shape="" offset="0" size="4" />
			<output>
				<port id="0" precision="FP32" />
			</output>
		</layer>
		<layer id="103" name="__module.model.model.backbone.model.encoder.stages.0.layers.0.activation/aten::relu/Relu/fq_output_0/output_high" type="Const" version="opset1">
			<data element_type="f32" shape="" offset="108428" size="4" />
			<output>
				<port id="0" precision="FP32" />
			</output>
		</layer>
		<layer id="104" name="__module.model.model.backbone.model.encoder.stages.0.layers.0.activation/aten::relu/Relu/fq_output_0" type="FakeQuantize" version="opset1">
			<data levels="256" auto_broadcast="numpy" />
			<input>
				<port id="0" precision="FP32">
					<dim>-1</dim>
					<dim>256</dim>
					<dim>-1</dim>
					<dim>-1</dim>
				</port>
				<port id="1" precision="FP32" />
				<port id="2" precision="FP32" />
				<port id="3" precision="FP32" />
				<port id="4" precision="FP32" />
			</input>
			<output>
				<port id="5" precision="FP32">
					<dim>-1</dim>
					<dim>256</dim>
					<dim>-1</dim>
					<dim>-1</dim>
				</port>
			</output>
		</layer>
		<layer id="105" name="Constant_4367758" type="Const" version="opset1">
			<data element_type="i8" shape="64, 256, 1, 1" offset="108432" size="16384" />
			<output>
				<port id="0" precision="I8">
					<dim>64</dim>
					<dim>256</dim>
					<dim>1</dim>
					<dim>1</dim>
				</port>
			</output>
		</layer>
		<layer id="106" name="Convert_4367759" type="Convert" version="opset1">
			<data destination_type="f32" />
			<input>
				<port id="0" precision="I8">
					<dim>64</dim>
					<dim>256</dim>
					<dim>1</dim>
					<dim>1</dim>
				</port>
			</input>
			<output>
				<port id="1" precision="FP32">
					<dim>64</dim>
					<dim>256</dim>
					<dim>1</dim>
					<dim>1</dim>
				</port>
			</output>
		</layer>
		<layer id="107" name="Constant_4367760" type="Const" version="opset1">
			<data element_type="f32" shape="64, 1, 1, 1" offset="124816" size="256" />
			<output>
				<port id="0" precision="FP32">
					<dim>64</dim>
					<dim>1</dim>
					<dim>1</dim>
					<dim>1</dim>
				</port>
			</output>
		</layer>
		<layer id="108" name="__module.model.model.backbone.model.encoder.stages.0.layers.1.layer.0.normalization/aten::mul/Multiply_1/fq_weights_1" type="Multiply" version="opset1">
			<data auto_broadcast="numpy" />
			<input>
				<port id="0" precision="FP32">
					<dim>64</dim>
					<dim>256</dim>
					<dim>1</dim>
					<dim>1</dim>
				</port>
				<port id="1" precision="FP32">
					<dim>64</dim>
					<dim>1</dim>
					<dim>1</dim>
					<dim>1</dim>
				</port>
			</input>
			<output>
				<port id="2" precision="FP32">
					<dim>64</dim>
					<dim>256</dim>
					<dim>1</dim>
					<dim>1</dim>
				</port>
			</output>
		</layer>
		<layer id="109" name="__module.model.model.backbone.model.encoder.stages.0.layers.1.layer.0.normalization/aten::mul/Multiply_1" type="Convolution" version="opset1">
			<data strides="1, 1" dilations="1, 1" pads_begin="0, 0" pads_end="0, 0" auto_pad="explicit" />
			<input>
				<port id="0" precision="FP32">
					<dim>-1</dim>
					<dim>256</dim>
					<dim>-1</dim>
					<dim>-1</dim>
				</port>
				<port id="1" precision="FP32">
					<dim>64</dim>
					<dim>256</dim>
					<dim>1</dim>
					<dim>1</dim>
				</port>
			</input>
			<output>
				<port id="2" precision="FP32" names="431">
					<dim>-1</dim>
					<dim>64</dim>
					<dim>-1</dim>
					<dim>-1</dim>
				</port>
			</output>
		</layer>
		<layer id="110" name="__module.model.model.backbone.model.encoder.stages.0.layers.1.layer.0.normalization/aten::add/Multiply_1" type="Const" version="opset1">
			<data element_type="f32" shape="1, 64, 1, 1" offset="125072" size="256" />
			<output>
				<port id="0" precision="FP32">
					<dim>1</dim>
					<dim>64</dim>
					<dim>1</dim>
					<dim>1</dim>
				</port>
			</output>
		</layer>
		<layer id="111" name="__module.model.model.backbone.model.encoder.stages.0.layers.1.layer.0.normalization/aten::add/Add_1" type="Add" version="opset1">
			<data auto_broadcast="numpy" />
			<input>
				<port id="0" precision="FP32">
					<dim>-1</dim>
					<dim>64</dim>
					<dim>-1</dim>
					<dim>-1</dim>
				</port>
				<port id="1" precision="FP32">
					<dim>1</dim>
					<dim>64</dim>
					<dim>1</dim>
					<dim>1</dim>
				</port>
			</input>
			<output>
				<port id="2" precision="FP32" names="432,input.27">
					<dim>-1</dim>
					<dim>64</dim>
					<dim>-1</dim>
					<dim>-1</dim>
				</port>
			</output>
		</layer>
		<layer id="112" name="__module.model.model.backbone.model.encoder.stages.0.layers.1.layer.0.activation/aten::relu/Relu" type="ReLU" version="opset1">
			<input>
				<port id="0" precision="FP32">
					<dim>-1</dim>
					<dim>64</dim>
					<dim>-1</dim>
					<dim>-1</dim>
				</port>
			</input>
			<output>
				<port id="1" precision="FP32" names="433,input.29">
					<dim>-1</dim>
					<dim>64</dim>
					<dim>-1</dim>
					<dim>-1</dim>
				</port>
			</output>
		</layer>
		<layer id="113" name="__module.model.model.backbone.model.encoder.stages.0.layers.1.layer.0.activation/aten::relu/Relu/fq_output_0/input_low" type="Const" version="opset1">
			<data element_type="f32" shape="" offset="0" size="4" />
			<output>
				<port id="0" precision="FP32" />
			</output>
		</layer>
		<layer id="114" name="__module.model.model.backbone.model.encoder.stages.0.layers.1.layer.0.activation/aten::relu/Relu/fq_output_0/input_high" type="Const" version="opset1">
			<data element_type="f32" shape="" offset="125328" size="4" />
			<output>
				<port id="0" precision="FP32" />
			</output>
		</layer>
		<layer id="115" name="__module.model.model.backbone.model.encoder.stages.0.layers.1.layer.0.activation/aten::relu/Relu/fq_output_0/output_low" type="Const" version="opset1">
			<data element_type="f32" shape="" offset="0" size="4" />
			<output>
				<port id="0" precision="FP32" />
			</output>
		</layer>
		<layer id="116" name="__module.model.model.backbone.model.encoder.stages.0.layers.1.layer.0.activation/aten::relu/Relu/fq_output_0/output_high" type="Const" version="opset1">
			<data element_type="f32" shape="" offset="125328" size="4" />
			<output>
				<port id="0" precision="FP32" />
			</output>
		</layer>
		<layer id="117" name="__module.model.model.backbone.model.encoder.stages.0.layers.1.layer.0.activation/aten::relu/Relu/fq_output_0" type="FakeQuantize" version="opset1">
			<data levels="256" auto_broadcast="numpy" />
			<input>
				<port id="0" precision="FP32">
					<dim>-1</dim>
					<dim>64</dim>
					<dim>-1</dim>
					<dim>-1</dim>
				</port>
				<port id="1" precision="FP32" />
				<port id="2" precision="FP32" />
				<port id="3" precision="FP32" />
				<port id="4" precision="FP32" />
			</input>
			<output>
				<port id="5" precision="FP32">
					<dim>-1</dim>
					<dim>64</dim>
					<dim>-1</dim>
					<dim>-1</dim>
				</port>
			</output>
		</layer>
		<layer id="118" name="Constant_4367762" type="Const" version="opset1">
			<data element_type="i8" shape="64, 64, 3, 3" offset="125332" size="36864" />
			<output>
				<port id="0" precision="I8">
					<dim>64</dim>
					<dim>64</dim>
					<dim>3</dim>
					<dim>3</dim>
				</port>
			</output>
		</layer>
		<layer id="119" name="Convert_4367763" type="Convert" version="opset1">
			<data destination_type="f32" />
			<input>
				<port id="0" precision="I8">
					<dim>64</dim>
					<dim>64</dim>
					<dim>3</dim>
					<dim>3</dim>
				</port>
			</input>
			<output>
				<port id="1" precision="FP32">
					<dim>64</dim>
					<dim>64</dim>
					<dim>3</dim>
					<dim>3</dim>
				</port>
			</output>
		</layer>
		<layer id="120" name="Constant_4367764" type="Const" version="opset1">
			<data element_type="f32" shape="64, 1, 1, 1" offset="162196" size="256" />
			<output>
				<port id="0" precision="FP32">
					<dim>64</dim>
					<dim>1</dim>
					<dim>1</dim>
					<dim>1</dim>
				</port>
			</output>
		</layer>
		<layer id="121" name="__module.model.model.backbone.model.encoder.stages.0.layers.1.layer.1.normalization/aten::mul/Multiply_1/fq_weights_1" type="Multiply" version="opset1">
			<data auto_broadcast="numpy" />
			<input>
				<port id="0" precision="FP32">
					<dim>64</dim>
					<dim>64</dim>
					<dim>3</dim>
					<dim>3</dim>
				</port>
				<port id="1" precision="FP32">
					<dim>64</dim>
					<dim>1</dim>
					<dim>1</dim>
					<dim>1</dim>
				</port>
			</input>
			<output>
				<port id="2" precision="FP32">
					<dim>64</dim>
					<dim>64</dim>
					<dim>3</dim>
					<dim>3</dim>
				</port>
			</output>
		</layer>
		<layer id="122" name="__module.model.model.backbone.model.encoder.stages.0.layers.1.layer.1.normalization/aten::mul/Multiply_1" type="Convolution" version="opset1">
			<data strides="1, 1" dilations="1, 1" pads_begin="1, 1" pads_end="1, 1" auto_pad="explicit" />
			<input>
				<port id="0" precision="FP32">
					<dim>-1</dim>
					<dim>64</dim>
					<dim>-1</dim>
					<dim>-1</dim>
				</port>
				<port id="1" precision="FP32">
					<dim>64</dim>
					<dim>64</dim>
					<dim>3</dim>
					<dim>3</dim>
				</port>
			</input>
			<output>
				<port id="2" precision="FP32" names="459">
					<dim>-1</dim>
					<dim>64</dim>
					<dim>-1</dim>
					<dim>-1</dim>
				</port>
			</output>
		</layer>
		<layer id="123" name="__module.model.model.backbone.model.encoder.stages.0.layers.1.layer.1.normalization/aten::add/Multiply_1" type="Const" version="opset1">
			<data element_type="f32" shape="1, 64, 1, 1" offset="162452" size="256" />
			<output>
				<port id="0" precision="FP32">
					<dim>1</dim>
					<dim>64</dim>
					<dim>1</dim>
					<dim>1</dim>
				</port>
			</output>
		</layer>
		<layer id="124" name="__module.model.model.backbone.model.encoder.stages.0.layers.1.layer.1.normalization/aten::add/Add_1" type="Add" version="opset1">
			<data auto_broadcast="numpy" />
			<input>
				<port id="0" precision="FP32">
					<dim>-1</dim>
					<dim>64</dim>
					<dim>-1</dim>
					<dim>-1</dim>
				</port>
				<port id="1" precision="FP32">
					<dim>1</dim>
					<dim>64</dim>
					<dim>1</dim>
					<dim>1</dim>
				</port>
			</input>
			<output>
				<port id="2" precision="FP32" names="460,input.31">
					<dim>-1</dim>
					<dim>64</dim>
					<dim>-1</dim>
					<dim>-1</dim>
				</port>
			</output>
		</layer>
		<layer id="125" name="__module.model.model.backbone.model.encoder.stages.0.layers.1.layer.1.activation/aten::relu/Relu" type="ReLU" version="opset1">
			<input>
				<port id="0" precision="FP32">
					<dim>-1</dim>
					<dim>64</dim>
					<dim>-1</dim>
					<dim>-1</dim>
				</port>
			</input>
			<output>
				<port id="1" precision="FP32" names="461,input.33">
					<dim>-1</dim>
					<dim>64</dim>
					<dim>-1</dim>
					<dim>-1</dim>
				</port>
			</output>
		</layer>
		<layer id="126" name="__module.model.model.backbone.model.encoder.stages.0.layers.1.layer.1.activation/aten::relu/Relu/fq_output_0/input_low" type="Const" version="opset1">
			<data element_type="f32" shape="" offset="0" size="4" />
			<output>
				<port id="0" precision="FP32" />
			</output>
		</layer>
		<layer id="127" name="__module.model.model.backbone.model.encoder.stages.0.layers.1.layer.1.activation/aten::relu/Relu/fq_output_0/input_high" type="Const" version="opset1">
			<data element_type="f32" shape="" offset="162708" size="4" />
			<output>
				<port id="0" precision="FP32" />
			</output>
		</layer>
		<layer id="128" name="__module.model.model.backbone.model.encoder.stages.0.layers.1.layer.1.activation/aten::relu/Relu/fq_output_0/output_low" type="Const" version="opset1">
			<data element_type="f32" shape="" offset="0" size="4" />
			<output>
				<port id="0" precision="FP32" />
			</output>
		</layer>
		<layer id="129" name="__module.model.model.backbone.model.encoder.stages.0.layers.1.layer.1.activation/aten::relu/Relu/fq_output_0/output_high" type="Const" version="opset1">
			<data element_type="f32" shape="" offset="162708" size="4" />
			<output>
				<port id="0" precision="FP32" />
			</output>
		</layer>
		<layer id="130" name="__module.model.model.backbone.model.encoder.stages.0.layers.1.layer.1.activation/aten::relu/Relu/fq_output_0" type="FakeQuantize" version="opset1">
			<data levels="256" auto_broadcast="numpy" />
			<input>
				<port id="0" precision="FP32">
					<dim>-1</dim>
					<dim>64</dim>
					<dim>-1</dim>
					<dim>-1</dim>
				</port>
				<port id="1" precision="FP32" />
				<port id="2" precision="FP32" />
				<port id="3" precision="FP32" />
				<port id="4" precision="FP32" />
			</input>
			<output>
				<port id="5" precision="FP32">
					<dim>-1</dim>
					<dim>64</dim>
					<dim>-1</dim>
					<dim>-1</dim>
				</port>
			</output>
		</layer>
		<layer id="131" name="Constant_4367766" type="Const" version="opset1">
			<data element_type="i8" shape="256, 64, 1, 1" offset="162712" size="16384" />
			<output>
				<port id="0" precision="I8">
					<dim>256</dim>
					<dim>64</dim>
					<dim>1</dim>
					<dim>1</dim>
				</port>
			</output>
		</layer>
		<layer id="132" name="Convert_4367767" type="Convert" version="opset1">
			<data destination_type="f32" />
			<input>
				<port id="0" precision="I8">
					<dim>256</dim>
					<dim>64</dim>
					<dim>1</dim>
					<dim>1</dim>
				</port>
			</input>
			<output>
				<port id="1" precision="FP32">
					<dim>256</dim>
					<dim>64</dim>
					<dim>1</dim>
					<dim>1</dim>
				</port>
			</output>
		</layer>
		<layer id="133" name="Constant_4367768" type="Const" version="opset1">
			<data element_type="f32" shape="256, 1, 1, 1" offset="179096" size="1024" />
			<output>
				<port id="0" precision="FP32">
					<dim>256</dim>
					<dim>1</dim>
					<dim>1</dim>
					<dim>1</dim>
				</port>
			</output>
		</layer>
		<layer id="134" name="__module.model.model.backbone.model.encoder.stages.0.layers.1.layer.2.normalization/aten::mul/Multiply_1/fq_weights_1" type="Multiply" version="opset1">
			<data auto_broadcast="numpy" />
			<input>
				<port id="0" precision="FP32">
					<dim>256</dim>
					<dim>64</dim>
					<dim>1</dim>
					<dim>1</dim>
				</port>
				<port id="1" precision="FP32">
					<dim>256</dim>
					<dim>1</dim>
					<dim>1</dim>
					<dim>1</dim>
				</port>
			</input>
			<output>
				<port id="2" precision="FP32">
					<dim>256</dim>
					<dim>64</dim>
					<dim>1</dim>
					<dim>1</dim>
				</port>
			</output>
		</layer>
		<layer id="135" name="__module.model.model.backbone.model.encoder.stages.0.layers.1.layer.2.normalization/aten::mul/Multiply_1" type="Convolution" version="opset1">
			<data strides="1, 1" dilations="1, 1" pads_begin="0, 0" pads_end="0, 0" auto_pad="explicit" />
			<input>
				<port id="0" precision="FP32">
					<dim>-1</dim>
					<dim>64</dim>
					<dim>-1</dim>
					<dim>-1</dim>
				</port>
				<port id="1" precision="FP32">
					<dim>256</dim>
					<dim>64</dim>
					<dim>1</dim>
					<dim>1</dim>
				</port>
			</input>
			<output>
				<port id="2" precision="FP32" names="487">
					<dim>-1</dim>
					<dim>256</dim>
					<dim>-1</dim>
					<dim>-1</dim>
				</port>
			</output>
		</layer>
		<layer id="136" name="__module.model.model.backbone.model.encoder.stages.0.layers.1.layer.2.normalization/aten::add/Multiply_1" type="Const" version="opset1">
			<data element_type="f32" shape="1, 256, 1, 1" offset="180120" size="1024" />
			<output>
				<port id="0" precision="FP32">
					<dim>1</dim>
					<dim>256</dim>
					<dim>1</dim>
					<dim>1</dim>
				</port>
			</output>
		</layer>
		<layer id="137" name="__module.model.model.backbone.model.encoder.stages.0.layers.1.layer.2.normalization/aten::add/Add_1" type="Add" version="opset1">
			<data auto_broadcast="numpy" />
			<input>
				<port id="0" precision="FP32">
					<dim>-1</dim>
					<dim>256</dim>
					<dim>-1</dim>
					<dim>-1</dim>
				</port>
				<port id="1" precision="FP32">
					<dim>1</dim>
					<dim>256</dim>
					<dim>1</dim>
					<dim>1</dim>
				</port>
			</input>
			<output>
				<port id="2" precision="FP32" names="488_1">
					<dim>-1</dim>
					<dim>256</dim>
					<dim>-1</dim>
					<dim>-1</dim>
				</port>
			</output>
		</layer>
		<layer id="138" name="__module.model.model.backbone.model.encoder.stages.0.layers.1.layer.2.normalization/aten::add/Add_1/fq_output_0/input_low" type="Const" version="opset1">
			<data element_type="f32" shape="" offset="181144" size="4" />
			<output>
				<port id="0" precision="FP32" />
			</output>
		</layer>
		<layer id="139" name="__module.model.model.backbone.model.encoder.stages.0.layers.1.layer.2.normalization/aten::add/Add_1/fq_output_0/input_high" type="Const" version="opset1">
			<data element_type="f32" shape="" offset="181148" size="4" />
			<output>
				<port id="0" precision="FP32" />
			</output>
		</layer>
		<layer id="140" name="__module.model.model.backbone.model.encoder.stages.0.layers.1.layer.2.normalization/aten::add/Add_1/fq_output_0/output_low" type="Const" version="opset1">
			<data element_type="f32" shape="" offset="181144" size="4" />
			<output>
				<port id="0" precision="FP32" />
			</output>
		</layer>
		<layer id="141" name="__module.model.model.backbone.model.encoder.stages.0.layers.1.layer.2.normalization/aten::add/Add_1/fq_output_0/output_high" type="Const" version="opset1">
			<data element_type="f32" shape="" offset="181148" size="4" />
			<output>
				<port id="0" precision="FP32" />
			</output>
		</layer>
		<layer id="142" name="__module.model.model.backbone.model.encoder.stages.0.layers.1.layer.2.normalization/aten::add/Add_1/fq_output_0" type="FakeQuantize" version="opset1">
			<data levels="256" auto_broadcast="numpy" />
			<input>
				<port id="0" precision="FP32">
					<dim>-1</dim>
					<dim>256</dim>
					<dim>-1</dim>
					<dim>-1</dim>
				</port>
				<port id="1" precision="FP32" />
				<port id="2" precision="FP32" />
				<port id="3" precision="FP32" />
				<port id="4" precision="FP32" />
			</input>
			<output>
				<port id="5" precision="FP32">
					<dim>-1</dim>
					<dim>256</dim>
					<dim>-1</dim>
					<dim>-1</dim>
				</port>
			</output>
		</layer>
		<layer id="143" name="__module.model.model.backbone.model.encoder.stages.0.layers.1/aten::add_/Add" type="Add" version="opset1">
			<data auto_broadcast="numpy" />
			<input>
				<port id="0" precision="FP32">
					<dim>-1</dim>
					<dim>256</dim>
					<dim>-1</dim>
					<dim>-1</dim>
				</port>
				<port id="1" precision="FP32">
					<dim>-1</dim>
					<dim>256</dim>
					<dim>-1</dim>
					<dim>-1</dim>
				</port>
			</input>
			<output>
				<port id="2" precision="FP32" names="488,hidden_state.3">
					<dim>-1</dim>
					<dim>256</dim>
					<dim>-1</dim>
					<dim>-1</dim>
				</port>
			</output>
		</layer>
		<layer id="144" name="__module.model.model.backbone.model.encoder.stages.0.layers.1.activation/aten::relu/Relu" type="ReLU" version="opset1">
			<input>
				<port id="0" precision="FP32">
					<dim>-1</dim>
					<dim>256</dim>
					<dim>-1</dim>
					<dim>-1</dim>
				</port>
			</input>
			<output>
				<port id="1" precision="FP32" names="490,input.37">
					<dim>-1</dim>
					<dim>256</dim>
					<dim>-1</dim>
					<dim>-1</dim>
				</port>
			</output>
		</layer>
		<layer id="145" name="__module.model.model.backbone.model.encoder.stages.0.layers.1.activation/aten::relu/Relu/fq_output_0/input_low" type="Const" version="opset1">
			<data element_type="f32" shape="" offset="0" size="4" />
			<output>
				<port id="0" precision="FP32" />
			</output>
		</layer>
		<layer id="146" name="__module.model.model.backbone.model.encoder.stages.0.layers.1.activation/aten::relu/Relu/fq_output_0/input_high" type="Const" version="opset1">
			<data element_type="f32" shape="" offset="181152" size="4" />
			<output>
				<port id="0" precision="FP32" />
			</output>
		</layer>
		<layer id="147" name="__module.model.model.backbone.model.encoder.stages.0.layers.1.activation/aten::relu/Relu/fq_output_0/output_low" type="Const" version="opset1">
			<data element_type="f32" shape="" offset="0" size="4" />
			<output>
				<port id="0" precision="FP32" />
			</output>
		</layer>
		<layer id="148" name="__module.model.model.backbone.model.encoder.stages.0.layers.1.activation/aten::relu/Relu/fq_output_0/output_high" type="Const" version="opset1">
			<data element_type="f32" shape="" offset="181152" size="4" />
			<output>
				<port id="0" precision="FP32" />
			</output>
		</layer>
		<layer id="149" name="__module.model.model.backbone.model.encoder.stages.0.layers.1.activation/aten::relu/Relu/fq_output_0" type="FakeQuantize" version="opset1">
			<data levels="256" auto_broadcast="numpy" />
			<input>
				<port id="0" precision="FP32">
					<dim>-1</dim>
					<dim>256</dim>
					<dim>-1</dim>
					<dim>-1</dim>
				</port>
				<port id="1" precision="FP32" />
				<port id="2" precision="FP32" />
				<port id="3" precision="FP32" />
				<port id="4" precision="FP32" />
			</input>
			<output>
				<port id="5" precision="FP32">
					<dim>-1</dim>
					<dim>256</dim>
					<dim>-1</dim>
					<dim>-1</dim>
				</port>
			</output>
		</layer>
		<layer id="150" name="Constant_4367770" type="Const" version="opset1">
			<data element_type="i8" shape="64, 256, 1, 1" offset="181156" size="16384" />
			<output>
				<port id="0" precision="I8">
					<dim>64</dim>
					<dim>256</dim>
					<dim>1</dim>
					<dim>1</dim>
				</port>
			</output>
		</layer>
		<layer id="151" name="Convert_4367771" type="Convert" version="opset1">
			<data destination_type="f32" />
			<input>
				<port id="0" precision="I8">
					<dim>64</dim>
					<dim>256</dim>
					<dim>1</dim>
					<dim>1</dim>
				</port>
			</input>
			<output>
				<port id="1" precision="FP32">
					<dim>64</dim>
					<dim>256</dim>
					<dim>1</dim>
					<dim>1</dim>
				</port>
			</output>
		</layer>
		<layer id="152" name="Constant_4367772" type="Const" version="opset1">
			<data element_type="f32" shape="64, 1, 1, 1" offset="197540" size="256" />
			<output>
				<port id="0" precision="FP32">
					<dim>64</dim>
					<dim>1</dim>
					<dim>1</dim>
					<dim>1</dim>
				</port>
			</output>
		</layer>
		<layer id="153" name="__module.model.model.backbone.model.encoder.stages.0.layers.2.layer.0.normalization/aten::mul/Multiply_1/fq_weights_1" type="Multiply" version="opset1">
			<data auto_broadcast="numpy" />
			<input>
				<port id="0" precision="FP32">
					<dim>64</dim>
					<dim>256</dim>
					<dim>1</dim>
					<dim>1</dim>
				</port>
				<port id="1" precision="FP32">
					<dim>64</dim>
					<dim>1</dim>
					<dim>1</dim>
					<dim>1</dim>
				</port>
			</input>
			<output>
				<port id="2" precision="FP32">
					<dim>64</dim>
					<dim>256</dim>
					<dim>1</dim>
					<dim>1</dim>
				</port>
			</output>
		</layer>
		<layer id="154" name="__module.model.model.backbone.model.encoder.stages.0.layers.2.layer.0.normalization/aten::mul/Multiply_1" type="Convolution" version="opset1">
			<data strides="1, 1" dilations="1, 1" pads_begin="0, 0" pads_end="0, 0" auto_pad="explicit" />
			<input>
				<port id="0" precision="FP32">
					<dim>-1</dim>
					<dim>256</dim>
					<dim>-1</dim>
					<dim>-1</dim>
				</port>
				<port id="1" precision="FP32">
					<dim>64</dim>
					<dim>256</dim>
					<dim>1</dim>
					<dim>1</dim>
				</port>
			</input>
			<output>
				<port id="2" precision="FP32" names="520">
					<dim>-1</dim>
					<dim>64</dim>
					<dim>-1</dim>
					<dim>-1</dim>
				</port>
			</output>
		</layer>
		<layer id="155" name="__module.model.model.backbone.model.encoder.stages.0.layers.2.layer.0.normalization/aten::add/Multiply_1" type="Const" version="opset1">
			<data element_type="f32" shape="1, 64, 1, 1" offset="197796" size="256" />
			<output>
				<port id="0" precision="FP32">
					<dim>1</dim>
					<dim>64</dim>
					<dim>1</dim>
					<dim>1</dim>
				</port>
			</output>
		</layer>
		<layer id="156" name="__module.model.model.backbone.model.encoder.stages.0.layers.2.layer.0.normalization/aten::add/Add_1" type="Add" version="opset1">
			<data auto_broadcast="numpy" />
			<input>
				<port id="0" precision="FP32">
					<dim>-1</dim>
					<dim>64</dim>
					<dim>-1</dim>
					<dim>-1</dim>
				</port>
				<port id="1" precision="FP32">
					<dim>1</dim>
					<dim>64</dim>
					<dim>1</dim>
					<dim>1</dim>
				</port>
			</input>
			<output>
				<port id="2" precision="FP32" names="521,input.39">
					<dim>-1</dim>
					<dim>64</dim>
					<dim>-1</dim>
					<dim>-1</dim>
				</port>
			</output>
		</layer>
		<layer id="157" name="__module.model.model.backbone.model.encoder.stages.0.layers.2.layer.0.activation/aten::relu/Relu" type="ReLU" version="opset1">
			<input>
				<port id="0" precision="FP32">
					<dim>-1</dim>
					<dim>64</dim>
					<dim>-1</dim>
					<dim>-1</dim>
				</port>
			</input>
			<output>
				<port id="1" precision="FP32" names="522,input.41">
					<dim>-1</dim>
					<dim>64</dim>
					<dim>-1</dim>
					<dim>-1</dim>
				</port>
			</output>
		</layer>
		<layer id="158" name="__module.model.model.backbone.model.encoder.stages.0.layers.2.layer.0.activation/aten::relu/Relu/fq_output_0/input_low" type="Const" version="opset1">
			<data element_type="f32" shape="" offset="0" size="4" />
			<output>
				<port id="0" precision="FP32" />
			</output>
		</layer>
		<layer id="159" name="__module.model.model.backbone.model.encoder.stages.0.layers.2.layer.0.activation/aten::relu/Relu/fq_output_0/input_high" type="Const" version="opset1">
			<data element_type="f32" shape="" offset="198052" size="4" />
			<output>
				<port id="0" precision="FP32" />
			</output>
		</layer>
		<layer id="160" name="__module.model.model.backbone.model.encoder.stages.0.layers.2.layer.0.activation/aten::relu/Relu/fq_output_0/output_low" type="Const" version="opset1">
			<data element_type="f32" shape="" offset="0" size="4" />
			<output>
				<port id="0" precision="FP32" />
			</output>
		</layer>
		<layer id="161" name="__module.model.model.backbone.model.encoder.stages.0.layers.2.layer.0.activation/aten::relu/Relu/fq_output_0/output_high" type="Const" version="opset1">
			<data element_type="f32" shape="" offset="198052" size="4" />
			<output>
				<port id="0" precision="FP32" />
			</output>
		</layer>
		<layer id="162" name="__module.model.model.backbone.model.encoder.stages.0.layers.2.layer.0.activation/aten::relu/Relu/fq_output_0" type="FakeQuantize" version="opset1">
			<data levels="256" auto_broadcast="numpy" />
			<input>
				<port id="0" precision="FP32">
					<dim>-1</dim>
					<dim>64</dim>
					<dim>-1</dim>
					<dim>-1</dim>
				</port>
				<port id="1" precision="FP32" />
				<port id="2" precision="FP32" />
				<port id="3" precision="FP32" />
				<port id="4" precision="FP32" />
			</input>
			<output>
				<port id="5" precision="FP32">
					<dim>-1</dim>
					<dim>64</dim>
					<dim>-1</dim>
					<dim>-1</dim>
				</port>
			</output>
		</layer>
		<layer id="163" name="Constant_4367774" type="Const" version="opset1">
			<data element_type="i8" shape="64, 64, 3, 3" offset="198056" size="36864" />
			<output>
				<port id="0" precision="I8">
					<dim>64</dim>
					<dim>64</dim>
					<dim>3</dim>
					<dim>3</dim>
				</port>
			</output>
		</layer>
		<layer id="164" name="Convert_4367775" type="Convert" version="opset1">
			<data destination_type="f32" />
			<input>
				<port id="0" precision="I8">
					<dim>64</dim>
					<dim>64</dim>
					<dim>3</dim>
					<dim>3</dim>
				</port>
			</input>
			<output>
				<port id="1" precision="FP32">
					<dim>64</dim>
					<dim>64</dim>
					<dim>3</dim>
					<dim>3</dim>
				</port>
			</output>
		</layer>
		<layer id="165" name="Constant_4367776" type="Const" version="opset1">
			<data element_type="f32" shape="64, 1, 1, 1" offset="234920" size="256" />
			<output>
				<port id="0" precision="FP32">
					<dim>64</dim>
					<dim>1</dim>
					<dim>1</dim>
					<dim>1</dim>
				</port>
			</output>
		</layer>
		<layer id="166" name="__module.model.model.backbone.model.encoder.stages.0.layers.2.layer.1.normalization/aten::mul/Multiply_1/fq_weights_1" type="Multiply" version="opset1">
			<data auto_broadcast="numpy" />
			<input>
				<port id="0" precision="FP32">
					<dim>64</dim>
					<dim>64</dim>
					<dim>3</dim>
					<dim>3</dim>
				</port>
				<port id="1" precision="FP32">
					<dim>64</dim>
					<dim>1</dim>
					<dim>1</dim>
					<dim>1</dim>
				</port>
			</input>
			<output>
				<port id="2" precision="FP32">
					<dim>64</dim>
					<dim>64</dim>
					<dim>3</dim>
					<dim>3</dim>
				</port>
			</output>
		</layer>
		<layer id="167" name="__module.model.model.backbone.model.encoder.stages.0.layers.2.layer.1.normalization/aten::mul/Multiply_1" type="Convolution" version="opset1">
			<data strides="1, 1" dilations="1, 1" pads_begin="1, 1" pads_end="1, 1" auto_pad="explicit" />
			<input>
				<port id="0" precision="FP32">
					<dim>-1</dim>
					<dim>64</dim>
					<dim>-1</dim>
					<dim>-1</dim>
				</port>
				<port id="1" precision="FP32">
					<dim>64</dim>
					<dim>64</dim>
					<dim>3</dim>
					<dim>3</dim>
				</port>
			</input>
			<output>
				<port id="2" precision="FP32" names="548">
					<dim>-1</dim>
					<dim>64</dim>
					<dim>-1</dim>
					<dim>-1</dim>
				</port>
			</output>
		</layer>
		<layer id="168" name="__module.model.model.backbone.model.encoder.stages.0.layers.2.layer.1.normalization/aten::add/Multiply_1" type="Const" version="opset1">
			<data element_type="f32" shape="1, 64, 1, 1" offset="235176" size="256" />
			<output>
				<port id="0" precision="FP32">
					<dim>1</dim>
					<dim>64</dim>
					<dim>1</dim>
					<dim>1</dim>
				</port>
			</output>
		</layer>
		<layer id="169" name="__module.model.model.backbone.model.encoder.stages.0.layers.2.layer.1.normalization/aten::add/Add_1" type="Add" version="opset1">
			<data auto_broadcast="numpy" />
			<input>
				<port id="0" precision="FP32">
					<dim>-1</dim>
					<dim>64</dim>
					<dim>-1</dim>
					<dim>-1</dim>
				</port>
				<port id="1" precision="FP32">
					<dim>1</dim>
					<dim>64</dim>
					<dim>1</dim>
					<dim>1</dim>
				</port>
			</input>
			<output>
				<port id="2" precision="FP32" names="549,input.43">
					<dim>-1</dim>
					<dim>64</dim>
					<dim>-1</dim>
					<dim>-1</dim>
				</port>
			</output>
		</layer>
		<layer id="170" name="__module.model.model.backbone.model.encoder.stages.0.layers.2.layer.1.activation/aten::relu/Relu" type="ReLU" version="opset1">
			<input>
				<port id="0" precision="FP32">
					<dim>-1</dim>
					<dim>64</dim>
					<dim>-1</dim>
					<dim>-1</dim>
				</port>
			</input>
			<output>
				<port id="1" precision="FP32" names="550,input.45">
					<dim>-1</dim>
					<dim>64</dim>
					<dim>-1</dim>
					<dim>-1</dim>
				</port>
			</output>
		</layer>
		<layer id="171" name="__module.model.model.backbone.model.encoder.stages.0.layers.2.layer.1.activation/aten::relu/Relu/fq_output_0/input_low" type="Const" version="opset1">
			<data element_type="f32" shape="" offset="0" size="4" />
			<output>
				<port id="0" precision="FP32" />
			</output>
		</layer>
		<layer id="172" name="__module.model.model.backbone.model.encoder.stages.0.layers.2.layer.1.activation/aten::relu/Relu/fq_output_0/input_high" type="Const" version="opset1">
			<data element_type="f32" shape="" offset="235432" size="4" />
			<output>
				<port id="0" precision="FP32" />
			</output>
		</layer>
		<layer id="173" name="__module.model.model.backbone.model.encoder.stages.0.layers.2.layer.1.activation/aten::relu/Relu/fq_output_0/output_low" type="Const" version="opset1">
			<data element_type="f32" shape="" offset="0" size="4" />
			<output>
				<port id="0" precision="FP32" />
			</output>
		</layer>
		<layer id="174" name="__module.model.model.backbone.model.encoder.stages.0.layers.2.layer.1.activation/aten::relu/Relu/fq_output_0/output_high" type="Const" version="opset1">
			<data element_type="f32" shape="" offset="235432" size="4" />
			<output>
				<port id="0" precision="FP32" />
			</output>
		</layer>
		<layer id="175" name="__module.model.model.backbone.model.encoder.stages.0.layers.2.layer.1.activation/aten::relu/Relu/fq_output_0" type="FakeQuantize" version="opset1">
			<data levels="256" auto_broadcast="numpy" />
			<input>
				<port id="0" precision="FP32">
					<dim>-1</dim>
					<dim>64</dim>
					<dim>-1</dim>
					<dim>-1</dim>
				</port>
				<port id="1" precision="FP32" />
				<port id="2" precision="FP32" />
				<port id="3" precision="FP32" />
				<port id="4" precision="FP32" />
			</input>
			<output>
				<port id="5" precision="FP32">
					<dim>-1</dim>
					<dim>64</dim>
					<dim>-1</dim>
					<dim>-1</dim>
				</port>
			</output>
		</layer>
		<layer id="176" name="Constant_4367778" type="Const" version="opset1">
			<data element_type="i8" shape="256, 64, 1, 1" offset="235436" size="16384" />
			<output>
				<port id="0" precision="I8">
					<dim>256</dim>
					<dim>64</dim>
					<dim>1</dim>
					<dim>1</dim>
				</port>
			</output>
		</layer>
		<layer id="177" name="Convert_4367779" type="Convert" version="opset1">
			<data destination_type="f32" />
			<input>
				<port id="0" precision="I8">
					<dim>256</dim>
					<dim>64</dim>
					<dim>1</dim>
					<dim>1</dim>
				</port>
			</input>
			<output>
				<port id="1" precision="FP32">
					<dim>256</dim>
					<dim>64</dim>
					<dim>1</dim>
					<dim>1</dim>
				</port>
			</output>
		</layer>
		<layer id="178" name="Constant_4367780" type="Const" version="opset1">
			<data element_type="f32" shape="256, 1, 1, 1" offset="251820" size="1024" />
			<output>
				<port id="0" precision="FP32">
					<dim>256</dim>
					<dim>1</dim>
					<dim>1</dim>
					<dim>1</dim>
				</port>
			</output>
		</layer>
		<layer id="179" name="__module.model.model.backbone.model.encoder.stages.0.layers.2.layer.2.normalization/aten::mul/Multiply_1/fq_weights_1" type="Multiply" version="opset1">
			<data auto_broadcast="numpy" />
			<input>
				<port id="0" precision="FP32">
					<dim>256</dim>
					<dim>64</dim>
					<dim>1</dim>
					<dim>1</dim>
				</port>
				<port id="1" precision="FP32">
					<dim>256</dim>
					<dim>1</dim>
					<dim>1</dim>
					<dim>1</dim>
				</port>
			</input>
			<output>
				<port id="2" precision="FP32">
					<dim>256</dim>
					<dim>64</dim>
					<dim>1</dim>
					<dim>1</dim>
				</port>
			</output>
		</layer>
		<layer id="180" name="__module.model.model.backbone.model.encoder.stages.0.layers.2.layer.2.normalization/aten::mul/Multiply_1" type="Convolution" version="opset1">
			<data strides="1, 1" dilations="1, 1" pads_begin="0, 0" pads_end="0, 0" auto_pad="explicit" />
			<input>
				<port id="0" precision="FP32">
					<dim>-1</dim>
					<dim>64</dim>
					<dim>-1</dim>
					<dim>-1</dim>
				</port>
				<port id="1" precision="FP32">
					<dim>256</dim>
					<dim>64</dim>
					<dim>1</dim>
					<dim>1</dim>
				</port>
			</input>
			<output>
				<port id="2" precision="FP32" names="576">
					<dim>-1</dim>
					<dim>256</dim>
					<dim>-1</dim>
					<dim>-1</dim>
				</port>
			</output>
		</layer>
		<layer id="181" name="__module.model.model.backbone.model.encoder.stages.0.layers.2.layer.2.normalization/aten::add/Multiply_1" type="Const" version="opset1">
			<data element_type="f32" shape="1, 256, 1, 1" offset="252844" size="1024" />
			<output>
				<port id="0" precision="FP32">
					<dim>1</dim>
					<dim>256</dim>
					<dim>1</dim>
					<dim>1</dim>
				</port>
			</output>
		</layer>
		<layer id="182" name="__module.model.model.backbone.model.encoder.stages.0.layers.2.layer.2.normalization/aten::add/Add_1" type="Add" version="opset1">
			<data auto_broadcast="numpy" />
			<input>
				<port id="0" precision="FP32">
					<dim>-1</dim>
					<dim>256</dim>
					<dim>-1</dim>
					<dim>-1</dim>
				</port>
				<port id="1" precision="FP32">
					<dim>1</dim>
					<dim>256</dim>
					<dim>1</dim>
					<dim>1</dim>
				</port>
			</input>
			<output>
				<port id="2" precision="FP32" names="577_1">
					<dim>-1</dim>
					<dim>256</dim>
					<dim>-1</dim>
					<dim>-1</dim>
				</port>
			</output>
		</layer>
		<layer id="183" name="__module.model.model.backbone.model.encoder.stages.0.layers.2.layer.2.normalization/aten::add/Add_1/fq_output_0/input_low" type="Const" version="opset1">
			<data element_type="f32" shape="" offset="253868" size="4" />
			<output>
				<port id="0" precision="FP32" />
			</output>
		</layer>
		<layer id="184" name="__module.model.model.backbone.model.encoder.stages.0.layers.2.layer.2.normalization/aten::add/Add_1/fq_output_0/input_high" type="Const" version="opset1">
			<data element_type="f32" shape="" offset="253872" size="4" />
			<output>
				<port id="0" precision="FP32" />
			</output>
		</layer>
		<layer id="185" name="__module.model.model.backbone.model.encoder.stages.0.layers.2.layer.2.normalization/aten::add/Add_1/fq_output_0/output_low" type="Const" version="opset1">
			<data element_type="f32" shape="" offset="253868" size="4" />
			<output>
				<port id="0" precision="FP32" />
			</output>
		</layer>
		<layer id="186" name="__module.model.model.backbone.model.encoder.stages.0.layers.2.layer.2.normalization/aten::add/Add_1/fq_output_0/output_high" type="Const" version="opset1">
			<data element_type="f32" shape="" offset="253872" size="4" />
			<output>
				<port id="0" precision="FP32" />
			</output>
		</layer>
		<layer id="187" name="__module.model.model.backbone.model.encoder.stages.0.layers.2.layer.2.normalization/aten::add/Add_1/fq_output_0" type="FakeQuantize" version="opset1">
			<data levels="256" auto_broadcast="numpy" />
			<input>
				<port id="0" precision="FP32">
					<dim>-1</dim>
					<dim>256</dim>
					<dim>-1</dim>
					<dim>-1</dim>
				</port>
				<port id="1" precision="FP32" />
				<port id="2" precision="FP32" />
				<port id="3" precision="FP32" />
				<port id="4" precision="FP32" />
			</input>
			<output>
				<port id="5" precision="FP32">
					<dim>-1</dim>
					<dim>256</dim>
					<dim>-1</dim>
					<dim>-1</dim>
				</port>
			</output>
		</layer>
		<layer id="188" name="__module.model.model.backbone.model.encoder.stages.0.layers.2/aten::add_/Add" type="Add" version="opset1">
			<data auto_broadcast="numpy" />
			<input>
				<port id="0" precision="FP32">
					<dim>-1</dim>
					<dim>256</dim>
					<dim>-1</dim>
					<dim>-1</dim>
				</port>
				<port id="1" precision="FP32">
					<dim>-1</dim>
					<dim>256</dim>
					<dim>-1</dim>
					<dim>-1</dim>
				</port>
			</input>
			<output>
				<port id="2" precision="FP32" names="577,hidden_state.5">
					<dim>-1</dim>
					<dim>256</dim>
					<dim>-1</dim>
					<dim>-1</dim>
				</port>
			</output>
		</layer>
		<layer id="189" name="__module.model.model.backbone.model.encoder.stages.0.layers.2.activation/aten::relu/Relu" type="ReLU" version="opset1">
			<input>
				<port id="0" precision="FP32">
					<dim>-1</dim>
					<dim>256</dim>
					<dim>-1</dim>
					<dim>-1</dim>
				</port>
			</input>
			<output>
				<port id="1" precision="FP32" names="579,input.49">
					<dim>-1</dim>
					<dim>256</dim>
					<dim>-1</dim>
					<dim>-1</dim>
				</port>
			</output>
		</layer>
		<layer id="190" name="__module.model.model.backbone.model.encoder.stages.0.layers.2.activation/aten::relu/Relu/fq_output_0/input_low" type="Const" version="opset1">
			<data element_type="f32" shape="" offset="0" size="4" />
			<output>
				<port id="0" precision="FP32" />
			</output>
		</layer>
		<layer id="191" name="__module.model.model.backbone.model.encoder.stages.0.layers.2.activation/aten::relu/Relu/fq_output_0/input_high" type="Const" version="opset1">
			<data element_type="f32" shape="" offset="253876" size="4" />
			<output>
				<port id="0" precision="FP32" />
			</output>
		</layer>
		<layer id="192" name="__module.model.model.backbone.model.encoder.stages.0.layers.2.activation/aten::relu/Relu/fq_output_0/output_low" type="Const" version="opset1">
			<data element_type="f32" shape="" offset="0" size="4" />
			<output>
				<port id="0" precision="FP32" />
			</output>
		</layer>
		<layer id="193" name="__module.model.model.backbone.model.encoder.stages.0.layers.2.activation/aten::relu/Relu/fq_output_0/output_high" type="Const" version="opset1">
			<data element_type="f32" shape="" offset="253876" size="4" />
			<output>
				<port id="0" precision="FP32" />
			</output>
		</layer>
		<layer id="194" name="__module.model.model.backbone.model.encoder.stages.0.layers.2.activation/aten::relu/Relu/fq_output_0" type="FakeQuantize" version="opset1">
			<data levels="256" auto_broadcast="numpy" />
			<input>
				<port id="0" precision="FP32">
					<dim>-1</dim>
					<dim>256</dim>
					<dim>-1</dim>
					<dim>-1</dim>
				</port>
				<port id="1" precision="FP32" />
				<port id="2" precision="FP32" />
				<port id="3" precision="FP32" />
				<port id="4" precision="FP32" />
			</input>
			<output>
				<port id="5" precision="FP32">
					<dim>-1</dim>
					<dim>256</dim>
					<dim>-1</dim>
					<dim>-1</dim>
				</port>
			</output>
		</layer>
		<layer id="195" name="Constant_4367782" type="Const" version="opset1">
			<data element_type="i8" shape="128, 256, 1, 1" offset="253880" size="32768" />
			<output>
				<port id="0" precision="I8">
					<dim>128</dim>
					<dim>256</dim>
					<dim>1</dim>
					<dim>1</dim>
				</port>
			</output>
		</layer>
		<layer id="196" name="Convert_4367783" type="Convert" version="opset1">
			<data destination_type="f32" />
			<input>
				<port id="0" precision="I8">
					<dim>128</dim>
					<dim>256</dim>
					<dim>1</dim>
					<dim>1</dim>
				</port>
			</input>
			<output>
				<port id="1" precision="FP32">
					<dim>128</dim>
					<dim>256</dim>
					<dim>1</dim>
					<dim>1</dim>
				</port>
			</output>
		</layer>
		<layer id="197" name="Constant_4367784" type="Const" version="opset1">
			<data element_type="f32" shape="128, 1, 1, 1" offset="286648" size="512" />
			<output>
				<port id="0" precision="FP32">
					<dim>128</dim>
					<dim>1</dim>
					<dim>1</dim>
					<dim>1</dim>
				</port>
			</output>
		</layer>
		<layer id="198" name="__module.model.model.backbone.model.encoder.stages.1.layers.0.layer.0.normalization/aten::mul/Multiply_1/fq_weights_1" type="Multiply" version="opset1">
			<data auto_broadcast="numpy" />
			<input>
				<port id="0" precision="FP32">
					<dim>128</dim>
					<dim>256</dim>
					<dim>1</dim>
					<dim>1</dim>
				</port>
				<port id="1" precision="FP32">
					<dim>128</dim>
					<dim>1</dim>
					<dim>1</dim>
					<dim>1</dim>
				</port>
			</input>
			<output>
				<port id="2" precision="FP32">
					<dim>128</dim>
					<dim>256</dim>
					<dim>1</dim>
					<dim>1</dim>
				</port>
			</output>
		</layer>
		<layer id="199" name="__module.model.model.backbone.model.encoder.stages.1.layers.0.layer.0.normalization/aten::mul/Multiply_1" type="Convolution" version="opset1">
			<data strides="1, 1" dilations="1, 1" pads_begin="0, 0" pads_end="0, 0" auto_pad="explicit" />
			<input>
				<port id="0" precision="FP32">
					<dim>-1</dim>
					<dim>256</dim>
					<dim>-1</dim>
					<dim>-1</dim>
				</port>
				<port id="1" precision="FP32">
					<dim>128</dim>
					<dim>256</dim>
					<dim>1</dim>
					<dim>1</dim>
				</port>
			</input>
			<output>
				<port id="2" precision="FP32" names="618">
					<dim>-1</dim>
					<dim>128</dim>
					<dim>-1</dim>
					<dim>-1</dim>
				</port>
			</output>
		</layer>
		<layer id="200" name="__module.model.model.backbone.model.encoder.stages.1.layers.0.layer.0.normalization/aten::add/Multiply_1" type="Const" version="opset1">
			<data element_type="f32" shape="1, 128, 1, 1" offset="287160" size="512" />
			<output>
				<port id="0" precision="FP32">
					<dim>1</dim>
					<dim>128</dim>
					<dim>1</dim>
					<dim>1</dim>
				</port>
			</output>
		</layer>
		<layer id="201" name="__module.model.model.backbone.model.encoder.stages.1.layers.0.layer.0.normalization/aten::add/Add_1" type="Add" version="opset1">
			<data auto_broadcast="numpy" />
			<input>
				<port id="0" precision="FP32">
					<dim>-1</dim>
					<dim>128</dim>
					<dim>-1</dim>
					<dim>-1</dim>
				</port>
				<port id="1" precision="FP32">
					<dim>1</dim>
					<dim>128</dim>
					<dim>1</dim>
					<dim>1</dim>
				</port>
			</input>
			<output>
				<port id="2" precision="FP32" names="619,input.51">
					<dim>-1</dim>
					<dim>128</dim>
					<dim>-1</dim>
					<dim>-1</dim>
				</port>
			</output>
		</layer>
		<layer id="202" name="__module.model.model.backbone.model.encoder.stages.1.layers.0.layer.0.activation/aten::relu/Relu" type="ReLU" version="opset1">
			<input>
				<port id="0" precision="FP32">
					<dim>-1</dim>
					<dim>128</dim>
					<dim>-1</dim>
					<dim>-1</dim>
				</port>
			</input>
			<output>
				<port id="1" precision="FP32" names="620,input.53">
					<dim>-1</dim>
					<dim>128</dim>
					<dim>-1</dim>
					<dim>-1</dim>
				</port>
			</output>
		</layer>
		<layer id="203" name="__module.model.model.backbone.model.encoder.stages.1.layers.0.layer.0.activation/aten::relu/Relu/fq_output_0/input_low" type="Const" version="opset1">
			<data element_type="f32" shape="" offset="0" size="4" />
			<output>
				<port id="0" precision="FP32" />
			</output>
		</layer>
		<layer id="204" name="__module.model.model.backbone.model.encoder.stages.1.layers.0.layer.0.activation/aten::relu/Relu/fq_output_0/input_high" type="Const" version="opset1">
			<data element_type="f32" shape="" offset="287672" size="4" />
			<output>
				<port id="0" precision="FP32" />
			</output>
		</layer>
		<layer id="205" name="__module.model.model.backbone.model.encoder.stages.1.layers.0.layer.0.activation/aten::relu/Relu/fq_output_0/output_low" type="Const" version="opset1">
			<data element_type="f32" shape="" offset="0" size="4" />
			<output>
				<port id="0" precision="FP32" />
			</output>
		</layer>
		<layer id="206" name="__module.model.model.backbone.model.encoder.stages.1.layers.0.layer.0.activation/aten::relu/Relu/fq_output_0/output_high" type="Const" version="opset1">
			<data element_type="f32" shape="" offset="287672" size="4" />
			<output>
				<port id="0" precision="FP32" />
			</output>
		</layer>
		<layer id="207" name="__module.model.model.backbone.model.encoder.stages.1.layers.0.layer.0.activation/aten::relu/Relu/fq_output_0" type="FakeQuantize" version="opset1">
			<data levels="256" auto_broadcast="numpy" />
			<input>
				<port id="0" precision="FP32">
					<dim>-1</dim>
					<dim>128</dim>
					<dim>-1</dim>
					<dim>-1</dim>
				</port>
				<port id="1" precision="FP32" />
				<port id="2" precision="FP32" />
				<port id="3" precision="FP32" />
				<port id="4" precision="FP32" />
			</input>
			<output>
				<port id="5" precision="FP32">
					<dim>-1</dim>
					<dim>128</dim>
					<dim>-1</dim>
					<dim>-1</dim>
				</port>
			</output>
		</layer>
		<layer id="208" name="Constant_4367786" type="Const" version="opset1">
			<data element_type="i8" shape="128, 128, 3, 3" offset="287676" size="147456" />
			<output>
				<port id="0" precision="I8">
					<dim>128</dim>
					<dim>128</dim>
					<dim>3</dim>
					<dim>3</dim>
				</port>
			</output>
		</layer>
		<layer id="209" name="Convert_4367787" type="Convert" version="opset1">
			<data destination_type="f32" />
			<input>
				<port id="0" precision="I8">
					<dim>128</dim>
					<dim>128</dim>
					<dim>3</dim>
					<dim>3</dim>
				</port>
			</input>
			<output>
				<port id="1" precision="FP32">
					<dim>128</dim>
					<dim>128</dim>
					<dim>3</dim>
					<dim>3</dim>
				</port>
			</output>
		</layer>
		<layer id="210" name="Constant_4367788" type="Const" version="opset1">
			<data element_type="f32" shape="128, 1, 1, 1" offset="435132" size="512" />
			<output>
				<port id="0" precision="FP32">
					<dim>128</dim>
					<dim>1</dim>
					<dim>1</dim>
					<dim>1</dim>
				</port>
			</output>
		</layer>
		<layer id="211" name="__module.model.model.backbone.model.encoder.stages.1.layers.0.layer.1.normalization/aten::mul/Multiply_1/fq_weights_1" type="Multiply" version="opset1">
			<data auto_broadcast="numpy" />
			<input>
				<port id="0" precision="FP32">
					<dim>128</dim>
					<dim>128</dim>
					<dim>3</dim>
					<dim>3</dim>
				</port>
				<port id="1" precision="FP32">
					<dim>128</dim>
					<dim>1</dim>
					<dim>1</dim>
					<dim>1</dim>
				</port>
			</input>
			<output>
				<port id="2" precision="FP32">
					<dim>128</dim>
					<dim>128</dim>
					<dim>3</dim>
					<dim>3</dim>
				</port>
			</output>
		</layer>
		<layer id="212" name="__module.model.model.backbone.model.encoder.stages.1.layers.0.layer.1.normalization/aten::mul/Multiply_1" type="Convolution" version="opset1">
			<data strides="2, 2" dilations="1, 1" pads_begin="1, 1" pads_end="1, 1" auto_pad="explicit" />
			<input>
				<port id="0" precision="FP32">
					<dim>-1</dim>
					<dim>128</dim>
					<dim>-1</dim>
					<dim>-1</dim>
				</port>
				<port id="1" precision="FP32">
					<dim>128</dim>
					<dim>128</dim>
					<dim>3</dim>
					<dim>3</dim>
				</port>
			</input>
			<output>
				<port id="2" precision="FP32" names="646">
					<dim>-1</dim>
					<dim>128</dim>
					<dim>-1</dim>
					<dim>-1</dim>
				</port>
			</output>
		</layer>
		<layer id="213" name="__module.model.model.backbone.model.encoder.stages.1.layers.0.layer.1.normalization/aten::add/Multiply_1" type="Const" version="opset1">
			<data element_type="f32" shape="1, 128, 1, 1" offset="435644" size="512" />
			<output>
				<port id="0" precision="FP32">
					<dim>1</dim>
					<dim>128</dim>
					<dim>1</dim>
					<dim>1</dim>
				</port>
			</output>
		</layer>
		<layer id="214" name="__module.model.model.backbone.model.encoder.stages.1.layers.0.layer.1.normalization/aten::add/Add_1" type="Add" version="opset1">
			<data auto_broadcast="numpy" />
			<input>
				<port id="0" precision="FP32">
					<dim>-1</dim>
					<dim>128</dim>
					<dim>-1</dim>
					<dim>-1</dim>
				</port>
				<port id="1" precision="FP32">
					<dim>1</dim>
					<dim>128</dim>
					<dim>1</dim>
					<dim>1</dim>
				</port>
			</input>
			<output>
				<port id="2" precision="FP32" names="647,input.55">
					<dim>-1</dim>
					<dim>128</dim>
					<dim>-1</dim>
					<dim>-1</dim>
				</port>
			</output>
		</layer>
		<layer id="215" name="__module.model.model.backbone.model.encoder.stages.1.layers.0.layer.1.activation/aten::relu/Relu" type="ReLU" version="opset1">
			<input>
				<port id="0" precision="FP32">
					<dim>-1</dim>
					<dim>128</dim>
					<dim>-1</dim>
					<dim>-1</dim>
				</port>
			</input>
			<output>
				<port id="1" precision="FP32" names="648,input.57">
					<dim>-1</dim>
					<dim>128</dim>
					<dim>-1</dim>
					<dim>-1</dim>
				</port>
			</output>
		</layer>
		<layer id="216" name="__module.model.model.backbone.model.encoder.stages.1.layers.0.layer.1.activation/aten::relu/Relu/fq_output_0/input_low" type="Const" version="opset1">
			<data element_type="f32" shape="" offset="0" size="4" />
			<output>
				<port id="0" precision="FP32" />
			</output>
		</layer>
		<layer id="217" name="__module.model.model.backbone.model.encoder.stages.1.layers.0.layer.1.activation/aten::relu/Relu/fq_output_0/input_high" type="Const" version="opset1">
			<data element_type="f32" shape="" offset="436156" size="4" />
			<output>
				<port id="0" precision="FP32" />
			</output>
		</layer>
		<layer id="218" name="__module.model.model.backbone.model.encoder.stages.1.layers.0.layer.1.activation/aten::relu/Relu/fq_output_0/output_low" type="Const" version="opset1">
			<data element_type="f32" shape="" offset="0" size="4" />
			<output>
				<port id="0" precision="FP32" />
			</output>
		</layer>
		<layer id="219" name="__module.model.model.backbone.model.encoder.stages.1.layers.0.layer.1.activation/aten::relu/Relu/fq_output_0/output_high" type="Const" version="opset1">
			<data element_type="f32" shape="" offset="436156" size="4" />
			<output>
				<port id="0" precision="FP32" />
			</output>
		</layer>
		<layer id="220" name="__module.model.model.backbone.model.encoder.stages.1.layers.0.layer.1.activation/aten::relu/Relu/fq_output_0" type="FakeQuantize" version="opset1">
			<data levels="256" auto_broadcast="numpy" />
			<input>
				<port id="0" precision="FP32">
					<dim>-1</dim>
					<dim>128</dim>
					<dim>-1</dim>
					<dim>-1</dim>
				</port>
				<port id="1" precision="FP32" />
				<port id="2" precision="FP32" />
				<port id="3" precision="FP32" />
				<port id="4" precision="FP32" />
			</input>
			<output>
				<port id="5" precision="FP32">
					<dim>-1</dim>
					<dim>128</dim>
					<dim>-1</dim>
					<dim>-1</dim>
				</port>
			</output>
		</layer>
		<layer id="221" name="Constant_4367790" type="Const" version="opset1">
			<data element_type="i8" shape="512, 128, 1, 1" offset="436160" size="65536" />
			<output>
				<port id="0" precision="I8">
					<dim>512</dim>
					<dim>128</dim>
					<dim>1</dim>
					<dim>1</dim>
				</port>
			</output>
		</layer>
		<layer id="222" name="Convert_4367791" type="Convert" version="opset1">
			<data destination_type="f32" />
			<input>
				<port id="0" precision="I8">
					<dim>512</dim>
					<dim>128</dim>
					<dim>1</dim>
					<dim>1</dim>
				</port>
			</input>
			<output>
				<port id="1" precision="FP32">
					<dim>512</dim>
					<dim>128</dim>
					<dim>1</dim>
					<dim>1</dim>
				</port>
			</output>
		</layer>
		<layer id="223" name="Constant_4367792" type="Const" version="opset1">
			<data element_type="f32" shape="512, 1, 1, 1" offset="501696" size="2048" />
			<output>
				<port id="0" precision="FP32">
					<dim>512</dim>
					<dim>1</dim>
					<dim>1</dim>
					<dim>1</dim>
				</port>
			</output>
		</layer>
		<layer id="224" name="__module.model.model.backbone.model.encoder.stages.1.layers.0.layer.2.normalization/aten::mul/Multiply_1/fq_weights_1" type="Multiply" version="opset1">
			<data auto_broadcast="numpy" />
			<input>
				<port id="0" precision="FP32">
					<dim>512</dim>
					<dim>128</dim>
					<dim>1</dim>
					<dim>1</dim>
				</port>
				<port id="1" precision="FP32">
					<dim>512</dim>
					<dim>1</dim>
					<dim>1</dim>
					<dim>1</dim>
				</port>
			</input>
			<output>
				<port id="2" precision="FP32">
					<dim>512</dim>
					<dim>128</dim>
					<dim>1</dim>
					<dim>1</dim>
				</port>
			</output>
		</layer>
		<layer id="225" name="__module.model.model.backbone.model.encoder.stages.1.layers.0.layer.2.normalization/aten::mul/Multiply_1" type="Convolution" version="opset1">
			<data strides="1, 1" dilations="1, 1" pads_begin="0, 0" pads_end="0, 0" auto_pad="explicit" />
			<input>
				<port id="0" precision="FP32">
					<dim>-1</dim>
					<dim>128</dim>
					<dim>-1</dim>
					<dim>-1</dim>
				</port>
				<port id="1" precision="FP32">
					<dim>512</dim>
					<dim>128</dim>
					<dim>1</dim>
					<dim>1</dim>
				</port>
			</input>
			<output>
				<port id="2" precision="FP32" names="674">
					<dim>-1</dim>
					<dim>512</dim>
					<dim>-1</dim>
					<dim>-1</dim>
				</port>
			</output>
		</layer>
		<layer id="226" name="__module.model.model.backbone.model.encoder.stages.1.layers.0.layer.2.normalization/aten::add/Multiply_1" type="Const" version="opset1">
			<data element_type="f32" shape="1, 512, 1, 1" offset="503744" size="2048" />
			<output>
				<port id="0" precision="FP32">
					<dim>1</dim>
					<dim>512</dim>
					<dim>1</dim>
					<dim>1</dim>
				</port>
			</output>
		</layer>
		<layer id="227" name="__module.model.model.backbone.model.encoder.stages.1.layers.0.layer.2.normalization/aten::add/Add_1" type="Add" version="opset1">
			<data auto_broadcast="numpy" />
			<input>
				<port id="0" precision="FP32">
					<dim>-1</dim>
					<dim>512</dim>
					<dim>-1</dim>
					<dim>-1</dim>
				</port>
				<port id="1" precision="FP32">
					<dim>1</dim>
					<dim>512</dim>
					<dim>1</dim>
					<dim>1</dim>
				</port>
			</input>
			<output>
				<port id="2" precision="FP32" names="675_1">
					<dim>-1</dim>
					<dim>512</dim>
					<dim>-1</dim>
					<dim>-1</dim>
				</port>
			</output>
		</layer>
		<layer id="228" name="__module.model.model.backbone.model.encoder.stages.1.layers.0.layer.2.normalization/aten::add/Add_1/fq_output_0/input_low" type="Const" version="opset1">
			<data element_type="f32" shape="" offset="505792" size="4" />
			<output>
				<port id="0" precision="FP32" />
			</output>
		</layer>
		<layer id="229" name="__module.model.model.backbone.model.encoder.stages.1.layers.0.layer.2.normalization/aten::add/Add_1/fq_output_0/input_high" type="Const" version="opset1">
			<data element_type="f32" shape="" offset="505796" size="4" />
			<output>
				<port id="0" precision="FP32" />
			</output>
		</layer>
		<layer id="230" name="__module.model.model.backbone.model.encoder.stages.1.layers.0.layer.2.normalization/aten::add/Add_1/fq_output_0/output_low" type="Const" version="opset1">
			<data element_type="f32" shape="" offset="505792" size="4" />
			<output>
				<port id="0" precision="FP32" />
			</output>
		</layer>
		<layer id="231" name="__module.model.model.backbone.model.encoder.stages.1.layers.0.layer.2.normalization/aten::add/Add_1/fq_output_0/output_high" type="Const" version="opset1">
			<data element_type="f32" shape="" offset="505796" size="4" />
			<output>
				<port id="0" precision="FP32" />
			</output>
		</layer>
		<layer id="232" name="__module.model.model.backbone.model.encoder.stages.1.layers.0.layer.2.normalization/aten::add/Add_1/fq_output_0" type="FakeQuantize" version="opset1">
			<data levels="256" auto_broadcast="numpy" />
			<input>
				<port id="0" precision="FP32">
					<dim>-1</dim>
					<dim>512</dim>
					<dim>-1</dim>
					<dim>-1</dim>
				</port>
				<port id="1" precision="FP32" />
				<port id="2" precision="FP32" />
				<port id="3" precision="FP32" />
				<port id="4" precision="FP32" />
			</input>
			<output>
				<port id="5" precision="FP32">
					<dim>-1</dim>
					<dim>512</dim>
					<dim>-1</dim>
					<dim>-1</dim>
				</port>
			</output>
		</layer>
		<layer id="233" name="__module.model.model.backbone.model.encoder.stages.1.layers.0.shortcut.0/aten::avg_pool2d/AvgPool" type="AvgPool" version="opset14">
			<data kernel="2, 2" strides="2, 2" pads_begin="0, 0" pads_end="0, 0" exclude-pad="false" auto_pad="explicit" rounding_type="ceil_torch" />
			<input>
				<port id="0" precision="FP32">
					<dim>-1</dim>
					<dim>256</dim>
					<dim>-1</dim>
					<dim>-1</dim>
				</port>
			</input>
			<output>
				<port id="1" precision="FP32" names="680,input.59">
					<dim>-1</dim>
					<dim>256</dim>
					<dim>-1</dim>
					<dim>-1</dim>
				</port>
			</output>
		</layer>
		<layer id="234" name="__module.model.model.backbone.model.encoder.stages.1.layers.0.shortcut.0/aten::avg_pool2d/AvgPool/fq_output_0/input_low" type="Const" version="opset1">
			<data element_type="f32" shape="" offset="0" size="4" />
			<output>
				<port id="0" precision="FP32" />
			</output>
		</layer>
		<layer id="235" name="__module.model.model.backbone.model.encoder.stages.1.layers.0.shortcut.0/aten::avg_pool2d/AvgPool/fq_output_0/input_high" type="Const" version="opset1">
			<data element_type="f32" shape="" offset="505800" size="4" />
			<output>
				<port id="0" precision="FP32" />
			</output>
		</layer>
		<layer id="236" name="__module.model.model.backbone.model.encoder.stages.1.layers.0.shortcut.0/aten::avg_pool2d/AvgPool/fq_output_0/output_low" type="Const" version="opset1">
			<data element_type="f32" shape="" offset="0" size="4" />
			<output>
				<port id="0" precision="FP32" />
			</output>
		</layer>
		<layer id="237" name="__module.model.model.backbone.model.encoder.stages.1.layers.0.shortcut.0/aten::avg_pool2d/AvgPool/fq_output_0/output_high" type="Const" version="opset1">
			<data element_type="f32" shape="" offset="505800" size="4" />
			<output>
				<port id="0" precision="FP32" />
			</output>
		</layer>
		<layer id="238" name="__module.model.model.backbone.model.encoder.stages.1.layers.0.shortcut.0/aten::avg_pool2d/AvgPool/fq_output_0" type="FakeQuantize" version="opset1">
			<data levels="256" auto_broadcast="numpy" />
			<input>
				<port id="0" precision="FP32">
					<dim>-1</dim>
					<dim>256</dim>
					<dim>-1</dim>
					<dim>-1</dim>
				</port>
				<port id="1" precision="FP32" />
				<port id="2" precision="FP32" />
				<port id="3" precision="FP32" />
				<port id="4" precision="FP32" />
			</input>
			<output>
				<port id="5" precision="FP32">
					<dim>-1</dim>
					<dim>256</dim>
					<dim>-1</dim>
					<dim>-1</dim>
				</port>
			</output>
		</layer>
		<layer id="239" name="Constant_4367794" type="Const" version="opset1">
			<data element_type="i8" shape="512, 256, 1, 1" offset="505804" size="131072" />
			<output>
				<port id="0" precision="I8">
					<dim>512</dim>
					<dim>256</dim>
					<dim>1</dim>
					<dim>1</dim>
				</port>
			</output>
		</layer>
		<layer id="240" name="Convert_4367795" type="Convert" version="opset1">
			<data destination_type="f32" />
			<input>
				<port id="0" precision="I8">
					<dim>512</dim>
					<dim>256</dim>
					<dim>1</dim>
					<dim>1</dim>
				</port>
			</input>
			<output>
				<port id="1" precision="FP32">
					<dim>512</dim>
					<dim>256</dim>
					<dim>1</dim>
					<dim>1</dim>
				</port>
			</output>
		</layer>
		<layer id="241" name="Constant_4367796" type="Const" version="opset1">
			<data element_type="f32" shape="512, 1, 1, 1" offset="636876" size="2048" />
			<output>
				<port id="0" precision="FP32">
					<dim>512</dim>
					<dim>1</dim>
					<dim>1</dim>
					<dim>1</dim>
				</port>
			</output>
		</layer>
		<layer id="242" name="__module.model.model.backbone.model.encoder.stages.1.layers.0.shortcut.1.normalization/aten::mul/Multiply_1/fq_weights_1" type="Multiply" version="opset1">
			<data auto_broadcast="numpy" />
			<input>
				<port id="0" precision="FP32">
					<dim>512</dim>
					<dim>256</dim>
					<dim>1</dim>
					<dim>1</dim>
				</port>
				<port id="1" precision="FP32">
					<dim>512</dim>
					<dim>1</dim>
					<dim>1</dim>
					<dim>1</dim>
				</port>
			</input>
			<output>
				<port id="2" precision="FP32">
					<dim>512</dim>
					<dim>256</dim>
					<dim>1</dim>
					<dim>1</dim>
				</port>
			</output>
		</layer>
		<layer id="243" name="__module.model.model.backbone.model.encoder.stages.1.layers.0.shortcut.1.normalization/aten::mul/Multiply_1" type="Convolution" version="opset1">
			<data strides="1, 1" dilations="1, 1" pads_begin="0, 0" pads_end="0, 0" auto_pad="explicit" />
			<input>
				<port id="0" precision="FP32">
					<dim>-1</dim>
					<dim>256</dim>
					<dim>-1</dim>
					<dim>-1</dim>
				</port>
				<port id="1" precision="FP32">
					<dim>512</dim>
					<dim>256</dim>
					<dim>1</dim>
					<dim>1</dim>
				</port>
			</input>
			<output>
				<port id="2" precision="FP32" names="706">
					<dim>-1</dim>
					<dim>512</dim>
					<dim>-1</dim>
					<dim>-1</dim>
				</port>
			</output>
		</layer>
		<layer id="244" name="__module.model.model.backbone.model.encoder.stages.1.layers.0.shortcut.1.normalization/aten::add/Multiply_1" type="Const" version="opset1">
			<data element_type="f32" shape="1, 512, 1, 1" offset="638924" size="2048" />
			<output>
				<port id="0" precision="FP32">
					<dim>1</dim>
					<dim>512</dim>
					<dim>1</dim>
					<dim>1</dim>
				</port>
			</output>
		</layer>
		<layer id="245" name="__module.model.model.backbone.model.encoder.stages.1.layers.0.shortcut.1.normalization/aten::add/Add_1" type="Add" version="opset1">
			<data auto_broadcast="numpy" />
			<input>
				<port id="0" precision="FP32">
					<dim>-1</dim>
					<dim>512</dim>
					<dim>-1</dim>
					<dim>-1</dim>
				</port>
				<port id="1" precision="FP32">
					<dim>1</dim>
					<dim>512</dim>
					<dim>1</dim>
					<dim>1</dim>
				</port>
			</input>
			<output>
				<port id="2" precision="FP32" names="707,residual.3">
					<dim>-1</dim>
					<dim>512</dim>
					<dim>-1</dim>
					<dim>-1</dim>
				</port>
			</output>
		</layer>
		<layer id="246" name="__module.model.model.backbone.model.encoder.stages.1.layers.0.shortcut.1.normalization/aten::add/Add_1/fq_output_0/input_low" type="Const" version="opset1">
			<data element_type="f32" shape="" offset="640972" size="4" />
			<output>
				<port id="0" precision="FP32" />
			</output>
		</layer>
		<layer id="247" name="__module.model.model.backbone.model.encoder.stages.1.layers.0.shortcut.1.normalization/aten::add/Add_1/fq_output_0/input_high" type="Const" version="opset1">
			<data element_type="f32" shape="" offset="640976" size="4" />
			<output>
				<port id="0" precision="FP32" />
			</output>
		</layer>
		<layer id="248" name="__module.model.model.backbone.model.encoder.stages.1.layers.0.shortcut.1.normalization/aten::add/Add_1/fq_output_0/output_low" type="Const" version="opset1">
			<data element_type="f32" shape="" offset="640972" size="4" />
			<output>
				<port id="0" precision="FP32" />
			</output>
		</layer>
		<layer id="249" name="__module.model.model.backbone.model.encoder.stages.1.layers.0.shortcut.1.normalization/aten::add/Add_1/fq_output_0/output_high" type="Const" version="opset1">
			<data element_type="f32" shape="" offset="640976" size="4" />
			<output>
				<port id="0" precision="FP32" />
			</output>
		</layer>
		<layer id="250" name="__module.model.model.backbone.model.encoder.stages.1.layers.0.shortcut.1.normalization/aten::add/Add_1/fq_output_0" type="FakeQuantize" version="opset1">
			<data levels="256" auto_broadcast="numpy" />
			<input>
				<port id="0" precision="FP32">
					<dim>-1</dim>
					<dim>512</dim>
					<dim>-1</dim>
					<dim>-1</dim>
				</port>
				<port id="1" precision="FP32" />
				<port id="2" precision="FP32" />
				<port id="3" precision="FP32" />
				<port id="4" precision="FP32" />
			</input>
			<output>
				<port id="5" precision="FP32">
					<dim>-1</dim>
					<dim>512</dim>
					<dim>-1</dim>
					<dim>-1</dim>
				</port>
			</output>
		</layer>
		<layer id="251" name="__module.model.model.backbone.model.encoder.stages.1.layers.0/aten::add_/Add" type="Add" version="opset1">
			<data auto_broadcast="numpy" />
			<input>
				<port id="0" precision="FP32">
					<dim>-1</dim>
					<dim>512</dim>
					<dim>-1</dim>
					<dim>-1</dim>
				</port>
				<port id="1" precision="FP32">
					<dim>-1</dim>
					<dim>512</dim>
					<dim>-1</dim>
					<dim>-1</dim>
				</port>
			</input>
			<output>
				<port id="2" precision="FP32" names="675,hidden_state.7">
					<dim>-1</dim>
					<dim>512</dim>
					<dim>-1</dim>
					<dim>-1</dim>
				</port>
			</output>
		</layer>
		<layer id="252" name="__module.model.model.backbone.model.encoder.stages.1.layers.0.activation/aten::relu/Relu" type="ReLU" version="opset1">
			<input>
				<port id="0" precision="FP32">
					<dim>-1</dim>
					<dim>512</dim>
					<dim>-1</dim>
					<dim>-1</dim>
				</port>
			</input>
			<output>
				<port id="1" precision="FP32" names="709,input.63">
					<dim>-1</dim>
					<dim>512</dim>
					<dim>-1</dim>
					<dim>-1</dim>
				</port>
			</output>
		</layer>
		<layer id="253" name="__module.model.model.backbone.model.encoder.stages.1.layers.0.activation/aten::relu/Relu/fq_output_0/input_low" type="Const" version="opset1">
			<data element_type="f32" shape="" offset="0" size="4" />
			<output>
				<port id="0" precision="FP32" />
			</output>
		</layer>
		<layer id="254" name="__module.model.model.backbone.model.encoder.stages.1.layers.0.activation/aten::relu/Relu/fq_output_0/input_high" type="Const" version="opset1">
			<data element_type="f32" shape="" offset="640980" size="4" />
			<output>
				<port id="0" precision="FP32" />
			</output>
		</layer>
		<layer id="255" name="__module.model.model.backbone.model.encoder.stages.1.layers.0.activation/aten::relu/Relu/fq_output_0/output_low" type="Const" version="opset1">
			<data element_type="f32" shape="" offset="0" size="4" />
			<output>
				<port id="0" precision="FP32" />
			</output>
		</layer>
		<layer id="256" name="__module.model.model.backbone.model.encoder.stages.1.layers.0.activation/aten::relu/Relu/fq_output_0/output_high" type="Const" version="opset1">
			<data element_type="f32" shape="" offset="640980" size="4" />
			<output>
				<port id="0" precision="FP32" />
			</output>
		</layer>
		<layer id="257" name="__module.model.model.backbone.model.encoder.stages.1.layers.0.activation/aten::relu/Relu/fq_output_0" type="FakeQuantize" version="opset1">
			<data levels="256" auto_broadcast="numpy" />
			<input>
				<port id="0" precision="FP32">
					<dim>-1</dim>
					<dim>512</dim>
					<dim>-1</dim>
					<dim>-1</dim>
				</port>
				<port id="1" precision="FP32" />
				<port id="2" precision="FP32" />
				<port id="3" precision="FP32" />
				<port id="4" precision="FP32" />
			</input>
			<output>
				<port id="5" precision="FP32">
					<dim>-1</dim>
					<dim>512</dim>
					<dim>-1</dim>
					<dim>-1</dim>
				</port>
			</output>
		</layer>
		<layer id="258" name="Constant_4367798" type="Const" version="opset1">
			<data element_type="i8" shape="128, 512, 1, 1" offset="640984" size="65536" />
			<output>
				<port id="0" precision="I8">
					<dim>128</dim>
					<dim>512</dim>
					<dim>1</dim>
					<dim>1</dim>
				</port>
			</output>
		</layer>
		<layer id="259" name="Convert_4367799" type="Convert" version="opset1">
			<data destination_type="f32" />
			<input>
				<port id="0" precision="I8">
					<dim>128</dim>
					<dim>512</dim>
					<dim>1</dim>
					<dim>1</dim>
				</port>
			</input>
			<output>
				<port id="1" precision="FP32">
					<dim>128</dim>
					<dim>512</dim>
					<dim>1</dim>
					<dim>1</dim>
				</port>
			</output>
		</layer>
		<layer id="260" name="Constant_4367800" type="Const" version="opset1">
			<data element_type="f32" shape="128, 1, 1, 1" offset="706520" size="512" />
			<output>
				<port id="0" precision="FP32">
					<dim>128</dim>
					<dim>1</dim>
					<dim>1</dim>
					<dim>1</dim>
				</port>
			</output>
		</layer>
		<layer id="261" name="__module.model.model.backbone.model.encoder.stages.1.layers.1.layer.0.normalization/aten::mul/Multiply_1/fq_weights_1" type="Multiply" version="opset1">
			<data auto_broadcast="numpy" />
			<input>
				<port id="0" precision="FP32">
					<dim>128</dim>
					<dim>512</dim>
					<dim>1</dim>
					<dim>1</dim>
				</port>
				<port id="1" precision="FP32">
					<dim>128</dim>
					<dim>1</dim>
					<dim>1</dim>
					<dim>1</dim>
				</port>
			</input>
			<output>
				<port id="2" precision="FP32">
					<dim>128</dim>
					<dim>512</dim>
					<dim>1</dim>
					<dim>1</dim>
				</port>
			</output>
		</layer>
		<layer id="262" name="__module.model.model.backbone.model.encoder.stages.1.layers.1.layer.0.normalization/aten::mul/Multiply_1" type="Convolution" version="opset1">
			<data strides="1, 1" dilations="1, 1" pads_begin="0, 0" pads_end="0, 0" auto_pad="explicit" />
			<input>
				<port id="0" precision="FP32">
					<dim>-1</dim>
					<dim>512</dim>
					<dim>-1</dim>
					<dim>-1</dim>
				</port>
				<port id="1" precision="FP32">
					<dim>128</dim>
					<dim>512</dim>
					<dim>1</dim>
					<dim>1</dim>
				</port>
			</input>
			<output>
				<port id="2" precision="FP32" names="739">
					<dim>-1</dim>
					<dim>128</dim>
					<dim>-1</dim>
					<dim>-1</dim>
				</port>
			</output>
		</layer>
		<layer id="263" name="__module.model.model.backbone.model.encoder.stages.1.layers.1.layer.0.normalization/aten::add/Multiply_1" type="Const" version="opset1">
			<data element_type="f32" shape="1, 128, 1, 1" offset="707032" size="512" />
			<output>
				<port id="0" precision="FP32">
					<dim>1</dim>
					<dim>128</dim>
					<dim>1</dim>
					<dim>1</dim>
				</port>
			</output>
		</layer>
		<layer id="264" name="__module.model.model.backbone.model.encoder.stages.1.layers.1.layer.0.normalization/aten::add/Add_1" type="Add" version="opset1">
			<data auto_broadcast="numpy" />
			<input>
				<port id="0" precision="FP32">
					<dim>-1</dim>
					<dim>128</dim>
					<dim>-1</dim>
					<dim>-1</dim>
				</port>
				<port id="1" precision="FP32">
					<dim>1</dim>
					<dim>128</dim>
					<dim>1</dim>
					<dim>1</dim>
				</port>
			</input>
			<output>
				<port id="2" precision="FP32" names="740,input.65">
					<dim>-1</dim>
					<dim>128</dim>
					<dim>-1</dim>
					<dim>-1</dim>
				</port>
			</output>
		</layer>
		<layer id="265" name="__module.model.model.backbone.model.encoder.stages.1.layers.1.layer.0.activation/aten::relu/Relu" type="ReLU" version="opset1">
			<input>
				<port id="0" precision="FP32">
					<dim>-1</dim>
					<dim>128</dim>
					<dim>-1</dim>
					<dim>-1</dim>
				</port>
			</input>
			<output>
				<port id="1" precision="FP32" names="741,input.67">
					<dim>-1</dim>
					<dim>128</dim>
					<dim>-1</dim>
					<dim>-1</dim>
				</port>
			</output>
		</layer>
		<layer id="266" name="__module.model.model.backbone.model.encoder.stages.1.layers.1.layer.0.activation/aten::relu/Relu/fq_output_0/input_low" type="Const" version="opset1">
			<data element_type="f32" shape="" offset="0" size="4" />
			<output>
				<port id="0" precision="FP32" />
			</output>
		</layer>
		<layer id="267" name="__module.model.model.backbone.model.encoder.stages.1.layers.1.layer.0.activation/aten::relu/Relu/fq_output_0/input_high" type="Const" version="opset1">
			<data element_type="f32" shape="" offset="707544" size="4" />
			<output>
				<port id="0" precision="FP32" />
			</output>
		</layer>
		<layer id="268" name="__module.model.model.backbone.model.encoder.stages.1.layers.1.layer.0.activation/aten::relu/Relu/fq_output_0/output_low" type="Const" version="opset1">
			<data element_type="f32" shape="" offset="0" size="4" />
			<output>
				<port id="0" precision="FP32" />
			</output>
		</layer>
		<layer id="269" name="__module.model.model.backbone.model.encoder.stages.1.layers.1.layer.0.activation/aten::relu/Relu/fq_output_0/output_high" type="Const" version="opset1">
			<data element_type="f32" shape="" offset="707544" size="4" />
			<output>
				<port id="0" precision="FP32" />
			</output>
		</layer>
		<layer id="270" name="__module.model.model.backbone.model.encoder.stages.1.layers.1.layer.0.activation/aten::relu/Relu/fq_output_0" type="FakeQuantize" version="opset1">
			<data levels="256" auto_broadcast="numpy" />
			<input>
				<port id="0" precision="FP32">
					<dim>-1</dim>
					<dim>128</dim>
					<dim>-1</dim>
					<dim>-1</dim>
				</port>
				<port id="1" precision="FP32" />
				<port id="2" precision="FP32" />
				<port id="3" precision="FP32" />
				<port id="4" precision="FP32" />
			</input>
			<output>
				<port id="5" precision="FP32">
					<dim>-1</dim>
					<dim>128</dim>
					<dim>-1</dim>
					<dim>-1</dim>
				</port>
			</output>
		</layer>
		<layer id="271" name="Constant_4367802" type="Const" version="opset1">
			<data element_type="i8" shape="128, 128, 3, 3" offset="707548" size="147456" />
			<output>
				<port id="0" precision="I8">
					<dim>128</dim>
					<dim>128</dim>
					<dim>3</dim>
					<dim>3</dim>
				</port>
			</output>
		</layer>
		<layer id="272" name="Convert_4367803" type="Convert" version="opset1">
			<data destination_type="f32" />
			<input>
				<port id="0" precision="I8">
					<dim>128</dim>
					<dim>128</dim>
					<dim>3</dim>
					<dim>3</dim>
				</port>
			</input>
			<output>
				<port id="1" precision="FP32">
					<dim>128</dim>
					<dim>128</dim>
					<dim>3</dim>
					<dim>3</dim>
				</port>
			</output>
		</layer>
		<layer id="273" name="Constant_4367804" type="Const" version="opset1">
			<data element_type="f32" shape="128, 1, 1, 1" offset="855004" size="512" />
			<output>
				<port id="0" precision="FP32">
					<dim>128</dim>
					<dim>1</dim>
					<dim>1</dim>
					<dim>1</dim>
				</port>
			</output>
		</layer>
		<layer id="274" name="__module.model.model.backbone.model.encoder.stages.1.layers.1.layer.1.normalization/aten::mul/Multiply_1/fq_weights_1" type="Multiply" version="opset1">
			<data auto_broadcast="numpy" />
			<input>
				<port id="0" precision="FP32">
					<dim>128</dim>
					<dim>128</dim>
					<dim>3</dim>
					<dim>3</dim>
				</port>
				<port id="1" precision="FP32">
					<dim>128</dim>
					<dim>1</dim>
					<dim>1</dim>
					<dim>1</dim>
				</port>
			</input>
			<output>
				<port id="2" precision="FP32">
					<dim>128</dim>
					<dim>128</dim>
					<dim>3</dim>
					<dim>3</dim>
				</port>
			</output>
		</layer>
		<layer id="275" name="__module.model.model.backbone.model.encoder.stages.1.layers.1.layer.1.normalization/aten::mul/Multiply_1" type="Convolution" version="opset1">
			<data strides="1, 1" dilations="1, 1" pads_begin="1, 1" pads_end="1, 1" auto_pad="explicit" />
			<input>
				<port id="0" precision="FP32">
					<dim>-1</dim>
					<dim>128</dim>
					<dim>-1</dim>
					<dim>-1</dim>
				</port>
				<port id="1" precision="FP32">
					<dim>128</dim>
					<dim>128</dim>
					<dim>3</dim>
					<dim>3</dim>
				</port>
			</input>
			<output>
				<port id="2" precision="FP32" names="767">
					<dim>-1</dim>
					<dim>128</dim>
					<dim>-1</dim>
					<dim>-1</dim>
				</port>
			</output>
		</layer>
		<layer id="276" name="__module.model.model.backbone.model.encoder.stages.1.layers.1.layer.1.normalization/aten::add/Multiply_1" type="Const" version="opset1">
			<data element_type="f32" shape="1, 128, 1, 1" offset="855516" size="512" />
			<output>
				<port id="0" precision="FP32">
					<dim>1</dim>
					<dim>128</dim>
					<dim>1</dim>
					<dim>1</dim>
				</port>
			</output>
		</layer>
		<layer id="277" name="__module.model.model.backbone.model.encoder.stages.1.layers.1.layer.1.normalization/aten::add/Add_1" type="Add" version="opset1">
			<data auto_broadcast="numpy" />
			<input>
				<port id="0" precision="FP32">
					<dim>-1</dim>
					<dim>128</dim>
					<dim>-1</dim>
					<dim>-1</dim>
				</port>
				<port id="1" precision="FP32">
					<dim>1</dim>
					<dim>128</dim>
					<dim>1</dim>
					<dim>1</dim>
				</port>
			</input>
			<output>
				<port id="2" precision="FP32" names="768,input.69">
					<dim>-1</dim>
					<dim>128</dim>
					<dim>-1</dim>
					<dim>-1</dim>
				</port>
			</output>
		</layer>
		<layer id="278" name="__module.model.model.backbone.model.encoder.stages.1.layers.1.layer.1.activation/aten::relu/Relu" type="ReLU" version="opset1">
			<input>
				<port id="0" precision="FP32">
					<dim>-1</dim>
					<dim>128</dim>
					<dim>-1</dim>
					<dim>-1</dim>
				</port>
			</input>
			<output>
				<port id="1" precision="FP32" names="769,input.71">
					<dim>-1</dim>
					<dim>128</dim>
					<dim>-1</dim>
					<dim>-1</dim>
				</port>
			</output>
		</layer>
		<layer id="279" name="__module.model.model.backbone.model.encoder.stages.1.layers.1.layer.1.activation/aten::relu/Relu/fq_output_0/input_low" type="Const" version="opset1">
			<data element_type="f32" shape="" offset="0" size="4" />
			<output>
				<port id="0" precision="FP32" />
			</output>
		</layer>
		<layer id="280" name="__module.model.model.backbone.model.encoder.stages.1.layers.1.layer.1.activation/aten::relu/Relu/fq_output_0/input_high" type="Const" version="opset1">
			<data element_type="f32" shape="" offset="856028" size="4" />
			<output>
				<port id="0" precision="FP32" />
			</output>
		</layer>
		<layer id="281" name="__module.model.model.backbone.model.encoder.stages.1.layers.1.layer.1.activation/aten::relu/Relu/fq_output_0/output_low" type="Const" version="opset1">
			<data element_type="f32" shape="" offset="0" size="4" />
			<output>
				<port id="0" precision="FP32" />
			</output>
		</layer>
		<layer id="282" name="__module.model.model.backbone.model.encoder.stages.1.layers.1.layer.1.activation/aten::relu/Relu/fq_output_0/output_high" type="Const" version="opset1">
			<data element_type="f32" shape="" offset="856028" size="4" />
			<output>
				<port id="0" precision="FP32" />
			</output>
		</layer>
		<layer id="283" name="__module.model.model.backbone.model.encoder.stages.1.layers.1.layer.1.activation/aten::relu/Relu/fq_output_0" type="FakeQuantize" version="opset1">
			<data levels="256" auto_broadcast="numpy" />
			<input>
				<port id="0" precision="FP32">
					<dim>-1</dim>
					<dim>128</dim>
					<dim>-1</dim>
					<dim>-1</dim>
				</port>
				<port id="1" precision="FP32" />
				<port id="2" precision="FP32" />
				<port id="3" precision="FP32" />
				<port id="4" precision="FP32" />
			</input>
			<output>
				<port id="5" precision="FP32">
					<dim>-1</dim>
					<dim>128</dim>
					<dim>-1</dim>
					<dim>-1</dim>
				</port>
			</output>
		</layer>
		<layer id="284" name="Constant_4367806" type="Const" version="opset1">
			<data element_type="i8" shape="512, 128, 1, 1" offset="856032" size="65536" />
			<output>
				<port id="0" precision="I8">
					<dim>512</dim>
					<dim>128</dim>
					<dim>1</dim>
					<dim>1</dim>
				</port>
			</output>
		</layer>
		<layer id="285" name="Convert_4367807" type="Convert" version="opset1">
			<data destination_type="f32" />
			<input>
				<port id="0" precision="I8">
					<dim>512</dim>
					<dim>128</dim>
					<dim>1</dim>
					<dim>1</dim>
				</port>
			</input>
			<output>
				<port id="1" precision="FP32">
					<dim>512</dim>
					<dim>128</dim>
					<dim>1</dim>
					<dim>1</dim>
				</port>
			</output>
		</layer>
		<layer id="286" name="Constant_4367808" type="Const" version="opset1">
			<data element_type="f32" shape="512, 1, 1, 1" offset="921568" size="2048" />
			<output>
				<port id="0" precision="FP32">
					<dim>512</dim>
					<dim>1</dim>
					<dim>1</dim>
					<dim>1</dim>
				</port>
			</output>
		</layer>
		<layer id="287" name="__module.model.model.backbone.model.encoder.stages.1.layers.1.layer.2.normalization/aten::mul/Multiply_1/fq_weights_1" type="Multiply" version="opset1">
			<data auto_broadcast="numpy" />
			<input>
				<port id="0" precision="FP32">
					<dim>512</dim>
					<dim>128</dim>
					<dim>1</dim>
					<dim>1</dim>
				</port>
				<port id="1" precision="FP32">
					<dim>512</dim>
					<dim>1</dim>
					<dim>1</dim>
					<dim>1</dim>
				</port>
			</input>
			<output>
				<port id="2" precision="FP32">
					<dim>512</dim>
					<dim>128</dim>
					<dim>1</dim>
					<dim>1</dim>
				</port>
			</output>
		</layer>
		<layer id="288" name="__module.model.model.backbone.model.encoder.stages.1.layers.1.layer.2.normalization/aten::mul/Multiply_1" type="Convolution" version="opset1">
			<data strides="1, 1" dilations="1, 1" pads_begin="0, 0" pads_end="0, 0" auto_pad="explicit" />
			<input>
				<port id="0" precision="FP32">
					<dim>-1</dim>
					<dim>128</dim>
					<dim>-1</dim>
					<dim>-1</dim>
				</port>
				<port id="1" precision="FP32">
					<dim>512</dim>
					<dim>128</dim>
					<dim>1</dim>
					<dim>1</dim>
				</port>
			</input>
			<output>
				<port id="2" precision="FP32" names="795">
					<dim>-1</dim>
					<dim>512</dim>
					<dim>-1</dim>
					<dim>-1</dim>
				</port>
			</output>
		</layer>
		<layer id="289" name="__module.model.model.backbone.model.encoder.stages.1.layers.1.layer.2.normalization/aten::add/Multiply_1" type="Const" version="opset1">
			<data element_type="f32" shape="1, 512, 1, 1" offset="923616" size="2048" />
			<output>
				<port id="0" precision="FP32">
					<dim>1</dim>
					<dim>512</dim>
					<dim>1</dim>
					<dim>1</dim>
				</port>
			</output>
		</layer>
		<layer id="290" name="__module.model.model.backbone.model.encoder.stages.1.layers.1.layer.2.normalization/aten::add/Add_1" type="Add" version="opset1">
			<data auto_broadcast="numpy" />
			<input>
				<port id="0" precision="FP32">
					<dim>-1</dim>
					<dim>512</dim>
					<dim>-1</dim>
					<dim>-1</dim>
				</port>
				<port id="1" precision="FP32">
					<dim>1</dim>
					<dim>512</dim>
					<dim>1</dim>
					<dim>1</dim>
				</port>
			</input>
			<output>
				<port id="2" precision="FP32" names="796_1">
					<dim>-1</dim>
					<dim>512</dim>
					<dim>-1</dim>
					<dim>-1</dim>
				</port>
			</output>
		</layer>
		<layer id="291" name="__module.model.model.backbone.model.encoder.stages.1.layers.1.layer.2.normalization/aten::add/Add_1/fq_output_0/input_low" type="Const" version="opset1">
			<data element_type="f32" shape="" offset="925664" size="4" />
			<output>
				<port id="0" precision="FP32" />
			</output>
		</layer>
		<layer id="292" name="__module.model.model.backbone.model.encoder.stages.1.layers.1.layer.2.normalization/aten::add/Add_1/fq_output_0/input_high" type="Const" version="opset1">
			<data element_type="f32" shape="" offset="925668" size="4" />
			<output>
				<port id="0" precision="FP32" />
			</output>
		</layer>
		<layer id="293" name="__module.model.model.backbone.model.encoder.stages.1.layers.1.layer.2.normalization/aten::add/Add_1/fq_output_0/output_low" type="Const" version="opset1">
			<data element_type="f32" shape="" offset="925664" size="4" />
			<output>
				<port id="0" precision="FP32" />
			</output>
		</layer>
		<layer id="294" name="__module.model.model.backbone.model.encoder.stages.1.layers.1.layer.2.normalization/aten::add/Add_1/fq_output_0/output_high" type="Const" version="opset1">
			<data element_type="f32" shape="" offset="925668" size="4" />
			<output>
				<port id="0" precision="FP32" />
			</output>
		</layer>
		<layer id="295" name="__module.model.model.backbone.model.encoder.stages.1.layers.1.layer.2.normalization/aten::add/Add_1/fq_output_0" type="FakeQuantize" version="opset1">
			<data levels="256" auto_broadcast="numpy" />
			<input>
				<port id="0" precision="FP32">
					<dim>-1</dim>
					<dim>512</dim>
					<dim>-1</dim>
					<dim>-1</dim>
				</port>
				<port id="1" precision="FP32" />
				<port id="2" precision="FP32" />
				<port id="3" precision="FP32" />
				<port id="4" precision="FP32" />
			</input>
			<output>
				<port id="5" precision="FP32">
					<dim>-1</dim>
					<dim>512</dim>
					<dim>-1</dim>
					<dim>-1</dim>
				</port>
			</output>
		</layer>
		<layer id="296" name="__module.model.model.backbone.model.encoder.stages.1.layers.1/aten::add_/Add" type="Add" version="opset1">
			<data auto_broadcast="numpy" />
			<input>
				<port id="0" precision="FP32">
					<dim>-1</dim>
					<dim>512</dim>
					<dim>-1</dim>
					<dim>-1</dim>
				</port>
				<port id="1" precision="FP32">
					<dim>-1</dim>
					<dim>512</dim>
					<dim>-1</dim>
					<dim>-1</dim>
				</port>
			</input>
			<output>
				<port id="2" precision="FP32" names="796,hidden_state.9">
					<dim>-1</dim>
					<dim>512</dim>
					<dim>-1</dim>
					<dim>-1</dim>
				</port>
			</output>
		</layer>
		<layer id="297" name="__module.model.model.backbone.model.encoder.stages.1.layers.1.activation/aten::relu/Relu" type="ReLU" version="opset1">
			<input>
				<port id="0" precision="FP32">
					<dim>-1</dim>
					<dim>512</dim>
					<dim>-1</dim>
					<dim>-1</dim>
				</port>
			</input>
			<output>
				<port id="1" precision="FP32" names="798,input.75">
					<dim>-1</dim>
					<dim>512</dim>
					<dim>-1</dim>
					<dim>-1</dim>
				</port>
			</output>
		</layer>
		<layer id="298" name="__module.model.model.backbone.model.encoder.stages.1.layers.1.activation/aten::relu/Relu/fq_output_0/input_low" type="Const" version="opset1">
			<data element_type="f32" shape="" offset="0" size="4" />
			<output>
				<port id="0" precision="FP32" />
			</output>
		</layer>
		<layer id="299" name="__module.model.model.backbone.model.encoder.stages.1.layers.1.activation/aten::relu/Relu/fq_output_0/input_high" type="Const" version="opset1">
			<data element_type="f32" shape="" offset="925672" size="4" />
			<output>
				<port id="0" precision="FP32" />
			</output>
		</layer>
		<layer id="300" name="__module.model.model.backbone.model.encoder.stages.1.layers.1.activation/aten::relu/Relu/fq_output_0/output_low" type="Const" version="opset1">
			<data element_type="f32" shape="" offset="0" size="4" />
			<output>
				<port id="0" precision="FP32" />
			</output>
		</layer>
		<layer id="301" name="__module.model.model.backbone.model.encoder.stages.1.layers.1.activation/aten::relu/Relu/fq_output_0/output_high" type="Const" version="opset1">
			<data element_type="f32" shape="" offset="925672" size="4" />
			<output>
				<port id="0" precision="FP32" />
			</output>
		</layer>
		<layer id="302" name="__module.model.model.backbone.model.encoder.stages.1.layers.1.activation/aten::relu/Relu/fq_output_0" type="FakeQuantize" version="opset1">
			<data levels="256" auto_broadcast="numpy" />
			<input>
				<port id="0" precision="FP32">
					<dim>-1</dim>
					<dim>512</dim>
					<dim>-1</dim>
					<dim>-1</dim>
				</port>
				<port id="1" precision="FP32" />
				<port id="2" precision="FP32" />
				<port id="3" precision="FP32" />
				<port id="4" precision="FP32" />
			</input>
			<output>
				<port id="5" precision="FP32">
					<dim>-1</dim>
					<dim>512</dim>
					<dim>-1</dim>
					<dim>-1</dim>
				</port>
			</output>
		</layer>
		<layer id="303" name="Constant_4367810" type="Const" version="opset1">
			<data element_type="i8" shape="128, 512, 1, 1" offset="925676" size="65536" />
			<output>
				<port id="0" precision="I8">
					<dim>128</dim>
					<dim>512</dim>
					<dim>1</dim>
					<dim>1</dim>
				</port>
			</output>
		</layer>
		<layer id="304" name="Convert_4367811" type="Convert" version="opset1">
			<data destination_type="f32" />
			<input>
				<port id="0" precision="I8">
					<dim>128</dim>
					<dim>512</dim>
					<dim>1</dim>
					<dim>1</dim>
				</port>
			</input>
			<output>
				<port id="1" precision="FP32">
					<dim>128</dim>
					<dim>512</dim>
					<dim>1</dim>
					<dim>1</dim>
				</port>
			</output>
		</layer>
		<layer id="305" name="Constant_4367812" type="Const" version="opset1">
			<data element_type="f32" shape="128, 1, 1, 1" offset="991212" size="512" />
			<output>
				<port id="0" precision="FP32">
					<dim>128</dim>
					<dim>1</dim>
					<dim>1</dim>
					<dim>1</dim>
				</port>
			</output>
		</layer>
		<layer id="306" name="__module.model.model.backbone.model.encoder.stages.1.layers.2.layer.0.normalization/aten::mul/Multiply_1/fq_weights_1" type="Multiply" version="opset1">
			<data auto_broadcast="numpy" />
			<input>
				<port id="0" precision="FP32">
					<dim>128</dim>
					<dim>512</dim>
					<dim>1</dim>
					<dim>1</dim>
				</port>
				<port id="1" precision="FP32">
					<dim>128</dim>
					<dim>1</dim>
					<dim>1</dim>
					<dim>1</dim>
				</port>
			</input>
			<output>
				<port id="2" precision="FP32">
					<dim>128</dim>
					<dim>512</dim>
					<dim>1</dim>
					<dim>1</dim>
				</port>
			</output>
		</layer>
		<layer id="307" name="__module.model.model.backbone.model.encoder.stages.1.layers.2.layer.0.normalization/aten::mul/Multiply_1" type="Convolution" version="opset1">
			<data strides="1, 1" dilations="1, 1" pads_begin="0, 0" pads_end="0, 0" auto_pad="explicit" />
			<input>
				<port id="0" precision="FP32">
					<dim>-1</dim>
					<dim>512</dim>
					<dim>-1</dim>
					<dim>-1</dim>
				</port>
				<port id="1" precision="FP32">
					<dim>128</dim>
					<dim>512</dim>
					<dim>1</dim>
					<dim>1</dim>
				</port>
			</input>
			<output>
				<port id="2" precision="FP32" names="828">
					<dim>-1</dim>
					<dim>128</dim>
					<dim>-1</dim>
					<dim>-1</dim>
				</port>
			</output>
		</layer>
		<layer id="308" name="__module.model.model.backbone.model.encoder.stages.1.layers.2.layer.0.normalization/aten::add/Multiply_1" type="Const" version="opset1">
			<data element_type="f32" shape="1, 128, 1, 1" offset="991724" size="512" />
			<output>
				<port id="0" precision="FP32">
					<dim>1</dim>
					<dim>128</dim>
					<dim>1</dim>
					<dim>1</dim>
				</port>
			</output>
		</layer>
		<layer id="309" name="__module.model.model.backbone.model.encoder.stages.1.layers.2.layer.0.normalization/aten::add/Add_1" type="Add" version="opset1">
			<data auto_broadcast="numpy" />
			<input>
				<port id="0" precision="FP32">
					<dim>-1</dim>
					<dim>128</dim>
					<dim>-1</dim>
					<dim>-1</dim>
				</port>
				<port id="1" precision="FP32">
					<dim>1</dim>
					<dim>128</dim>
					<dim>1</dim>
					<dim>1</dim>
				</port>
			</input>
			<output>
				<port id="2" precision="FP32" names="829,input.77">
					<dim>-1</dim>
					<dim>128</dim>
					<dim>-1</dim>
					<dim>-1</dim>
				</port>
			</output>
		</layer>
		<layer id="310" name="__module.model.model.backbone.model.encoder.stages.1.layers.2.layer.0.activation/aten::relu/Relu" type="ReLU" version="opset1">
			<input>
				<port id="0" precision="FP32">
					<dim>-1</dim>
					<dim>128</dim>
					<dim>-1</dim>
					<dim>-1</dim>
				</port>
			</input>
			<output>
				<port id="1" precision="FP32" names="830,input.79">
					<dim>-1</dim>
					<dim>128</dim>
					<dim>-1</dim>
					<dim>-1</dim>
				</port>
			</output>
		</layer>
		<layer id="311" name="__module.model.model.backbone.model.encoder.stages.1.layers.2.layer.0.activation/aten::relu/Relu/fq_output_0/input_low" type="Const" version="opset1">
			<data element_type="f32" shape="" offset="0" size="4" />
			<output>
				<port id="0" precision="FP32" />
			</output>
		</layer>
		<layer id="312" name="__module.model.model.backbone.model.encoder.stages.1.layers.2.layer.0.activation/aten::relu/Relu/fq_output_0/input_high" type="Const" version="opset1">
			<data element_type="f32" shape="" offset="992236" size="4" />
			<output>
				<port id="0" precision="FP32" />
			</output>
		</layer>
		<layer id="313" name="__module.model.model.backbone.model.encoder.stages.1.layers.2.layer.0.activation/aten::relu/Relu/fq_output_0/output_low" type="Const" version="opset1">
			<data element_type="f32" shape="" offset="0" size="4" />
			<output>
				<port id="0" precision="FP32" />
			</output>
		</layer>
		<layer id="314" name="__module.model.model.backbone.model.encoder.stages.1.layers.2.layer.0.activation/aten::relu/Relu/fq_output_0/output_high" type="Const" version="opset1">
			<data element_type="f32" shape="" offset="992236" size="4" />
			<output>
				<port id="0" precision="FP32" />
			</output>
		</layer>
		<layer id="315" name="__module.model.model.backbone.model.encoder.stages.1.layers.2.layer.0.activation/aten::relu/Relu/fq_output_0" type="FakeQuantize" version="opset1">
			<data levels="256" auto_broadcast="numpy" />
			<input>
				<port id="0" precision="FP32">
					<dim>-1</dim>
					<dim>128</dim>
					<dim>-1</dim>
					<dim>-1</dim>
				</port>
				<port id="1" precision="FP32" />
				<port id="2" precision="FP32" />
				<port id="3" precision="FP32" />
				<port id="4" precision="FP32" />
			</input>
			<output>
				<port id="5" precision="FP32">
					<dim>-1</dim>
					<dim>128</dim>
					<dim>-1</dim>
					<dim>-1</dim>
				</port>
			</output>
		</layer>
		<layer id="316" name="Constant_4367814" type="Const" version="opset1">
			<data element_type="i8" shape="128, 128, 3, 3" offset="992240" size="147456" />
			<output>
				<port id="0" precision="I8">
					<dim>128</dim>
					<dim>128</dim>
					<dim>3</dim>
					<dim>3</dim>
				</port>
			</output>
		</layer>
		<layer id="317" name="Convert_4367815" type="Convert" version="opset1">
			<data destination_type="f32" />
			<input>
				<port id="0" precision="I8">
					<dim>128</dim>
					<dim>128</dim>
					<dim>3</dim>
					<dim>3</dim>
				</port>
			</input>
			<output>
				<port id="1" precision="FP32">
					<dim>128</dim>
					<dim>128</dim>
					<dim>3</dim>
					<dim>3</dim>
				</port>
			</output>
		</layer>
		<layer id="318" name="Constant_4367816" type="Const" version="opset1">
			<data element_type="f32" shape="128, 1, 1, 1" offset="1139696" size="512" />
			<output>
				<port id="0" precision="FP32">
					<dim>128</dim>
					<dim>1</dim>
					<dim>1</dim>
					<dim>1</dim>
				</port>
			</output>
		</layer>
		<layer id="319" name="__module.model.model.backbone.model.encoder.stages.1.layers.2.layer.1.normalization/aten::mul/Multiply_1/fq_weights_1" type="Multiply" version="opset1">
			<data auto_broadcast="numpy" />
			<input>
				<port id="0" precision="FP32">
					<dim>128</dim>
					<dim>128</dim>
					<dim>3</dim>
					<dim>3</dim>
				</port>
				<port id="1" precision="FP32">
					<dim>128</dim>
					<dim>1</dim>
					<dim>1</dim>
					<dim>1</dim>
				</port>
			</input>
			<output>
				<port id="2" precision="FP32">
					<dim>128</dim>
					<dim>128</dim>
					<dim>3</dim>
					<dim>3</dim>
				</port>
			</output>
		</layer>
		<layer id="320" name="__module.model.model.backbone.model.encoder.stages.1.layers.2.layer.1.normalization/aten::mul/Multiply_1" type="Convolution" version="opset1">
			<data strides="1, 1" dilations="1, 1" pads_begin="1, 1" pads_end="1, 1" auto_pad="explicit" />
			<input>
				<port id="0" precision="FP32">
					<dim>-1</dim>
					<dim>128</dim>
					<dim>-1</dim>
					<dim>-1</dim>
				</port>
				<port id="1" precision="FP32">
					<dim>128</dim>
					<dim>128</dim>
					<dim>3</dim>
					<dim>3</dim>
				</port>
			</input>
			<output>
				<port id="2" precision="FP32" names="856">
					<dim>-1</dim>
					<dim>128</dim>
					<dim>-1</dim>
					<dim>-1</dim>
				</port>
			</output>
		</layer>
		<layer id="321" name="__module.model.model.backbone.model.encoder.stages.1.layers.2.layer.1.normalization/aten::add/Multiply_1" type="Const" version="opset1">
			<data element_type="f32" shape="1, 128, 1, 1" offset="1140208" size="512" />
			<output>
				<port id="0" precision="FP32">
					<dim>1</dim>
					<dim>128</dim>
					<dim>1</dim>
					<dim>1</dim>
				</port>
			</output>
		</layer>
		<layer id="322" name="__module.model.model.backbone.model.encoder.stages.1.layers.2.layer.1.normalization/aten::add/Add_1" type="Add" version="opset1">
			<data auto_broadcast="numpy" />
			<input>
				<port id="0" precision="FP32">
					<dim>-1</dim>
					<dim>128</dim>
					<dim>-1</dim>
					<dim>-1</dim>
				</port>
				<port id="1" precision="FP32">
					<dim>1</dim>
					<dim>128</dim>
					<dim>1</dim>
					<dim>1</dim>
				</port>
			</input>
			<output>
				<port id="2" precision="FP32" names="857,input.81">
					<dim>-1</dim>
					<dim>128</dim>
					<dim>-1</dim>
					<dim>-1</dim>
				</port>
			</output>
		</layer>
		<layer id="323" name="__module.model.model.backbone.model.encoder.stages.1.layers.2.layer.1.activation/aten::relu/Relu" type="ReLU" version="opset1">
			<input>
				<port id="0" precision="FP32">
					<dim>-1</dim>
					<dim>128</dim>
					<dim>-1</dim>
					<dim>-1</dim>
				</port>
			</input>
			<output>
				<port id="1" precision="FP32" names="858,input.83">
					<dim>-1</dim>
					<dim>128</dim>
					<dim>-1</dim>
					<dim>-1</dim>
				</port>
			</output>
		</layer>
		<layer id="324" name="__module.model.model.backbone.model.encoder.stages.1.layers.2.layer.1.activation/aten::relu/Relu/fq_output_0/input_low" type="Const" version="opset1">
			<data element_type="f32" shape="" offset="0" size="4" />
			<output>
				<port id="0" precision="FP32" />
			</output>
		</layer>
		<layer id="325" name="__module.model.model.backbone.model.encoder.stages.1.layers.2.layer.1.activation/aten::relu/Relu/fq_output_0/input_high" type="Const" version="opset1">
			<data element_type="f32" shape="" offset="1140720" size="4" />
			<output>
				<port id="0" precision="FP32" />
			</output>
		</layer>
		<layer id="326" name="__module.model.model.backbone.model.encoder.stages.1.layers.2.layer.1.activation/aten::relu/Relu/fq_output_0/output_low" type="Const" version="opset1">
			<data element_type="f32" shape="" offset="0" size="4" />
			<output>
				<port id="0" precision="FP32" />
			</output>
		</layer>
		<layer id="327" name="__module.model.model.backbone.model.encoder.stages.1.layers.2.layer.1.activation/aten::relu/Relu/fq_output_0/output_high" type="Const" version="opset1">
			<data element_type="f32" shape="" offset="1140720" size="4" />
			<output>
				<port id="0" precision="FP32" />
			</output>
		</layer>
		<layer id="328" name="__module.model.model.backbone.model.encoder.stages.1.layers.2.layer.1.activation/aten::relu/Relu/fq_output_0" type="FakeQuantize" version="opset1">
			<data levels="256" auto_broadcast="numpy" />
			<input>
				<port id="0" precision="FP32">
					<dim>-1</dim>
					<dim>128</dim>
					<dim>-1</dim>
					<dim>-1</dim>
				</port>
				<port id="1" precision="FP32" />
				<port id="2" precision="FP32" />
				<port id="3" precision="FP32" />
				<port id="4" precision="FP32" />
			</input>
			<output>
				<port id="5" precision="FP32">
					<dim>-1</dim>
					<dim>128</dim>
					<dim>-1</dim>
					<dim>-1</dim>
				</port>
			</output>
		</layer>
		<layer id="329" name="Constant_4367818" type="Const" version="opset1">
			<data element_type="i8" shape="512, 128, 1, 1" offset="1140724" size="65536" />
			<output>
				<port id="0" precision="I8">
					<dim>512</dim>
					<dim>128</dim>
					<dim>1</dim>
					<dim>1</dim>
				</port>
			</output>
		</layer>
		<layer id="330" name="Convert_4367819" type="Convert" version="opset1">
			<data destination_type="f32" />
			<input>
				<port id="0" precision="I8">
					<dim>512</dim>
					<dim>128</dim>
					<dim>1</dim>
					<dim>1</dim>
				</port>
			</input>
			<output>
				<port id="1" precision="FP32">
					<dim>512</dim>
					<dim>128</dim>
					<dim>1</dim>
					<dim>1</dim>
				</port>
			</output>
		</layer>
		<layer id="331" name="Constant_4367820" type="Const" version="opset1">
			<data element_type="f32" shape="512, 1, 1, 1" offset="1206260" size="2048" />
			<output>
				<port id="0" precision="FP32">
					<dim>512</dim>
					<dim>1</dim>
					<dim>1</dim>
					<dim>1</dim>
				</port>
			</output>
		</layer>
		<layer id="332" name="__module.model.model.backbone.model.encoder.stages.1.layers.2.layer.2.normalization/aten::mul/Multiply_1/fq_weights_1" type="Multiply" version="opset1">
			<data auto_broadcast="numpy" />
			<input>
				<port id="0" precision="FP32">
					<dim>512</dim>
					<dim>128</dim>
					<dim>1</dim>
					<dim>1</dim>
				</port>
				<port id="1" precision="FP32">
					<dim>512</dim>
					<dim>1</dim>
					<dim>1</dim>
					<dim>1</dim>
				</port>
			</input>
			<output>
				<port id="2" precision="FP32">
					<dim>512</dim>
					<dim>128</dim>
					<dim>1</dim>
					<dim>1</dim>
				</port>
			</output>
		</layer>
		<layer id="333" name="__module.model.model.backbone.model.encoder.stages.1.layers.2.layer.2.normalization/aten::mul/Multiply_1" type="Convolution" version="opset1">
			<data strides="1, 1" dilations="1, 1" pads_begin="0, 0" pads_end="0, 0" auto_pad="explicit" />
			<input>
				<port id="0" precision="FP32">
					<dim>-1</dim>
					<dim>128</dim>
					<dim>-1</dim>
					<dim>-1</dim>
				</port>
				<port id="1" precision="FP32">
					<dim>512</dim>
					<dim>128</dim>
					<dim>1</dim>
					<dim>1</dim>
				</port>
			</input>
			<output>
				<port id="2" precision="FP32" names="884">
					<dim>-1</dim>
					<dim>512</dim>
					<dim>-1</dim>
					<dim>-1</dim>
				</port>
			</output>
		</layer>
		<layer id="334" name="__module.model.model.backbone.model.encoder.stages.1.layers.2.layer.2.normalization/aten::add/Multiply_1" type="Const" version="opset1">
			<data element_type="f32" shape="1, 512, 1, 1" offset="1208308" size="2048" />
			<output>
				<port id="0" precision="FP32">
					<dim>1</dim>
					<dim>512</dim>
					<dim>1</dim>
					<dim>1</dim>
				</port>
			</output>
		</layer>
		<layer id="335" name="__module.model.model.backbone.model.encoder.stages.1.layers.2.layer.2.normalization/aten::add/Add_1" type="Add" version="opset1">
			<data auto_broadcast="numpy" />
			<input>
				<port id="0" precision="FP32">
					<dim>-1</dim>
					<dim>512</dim>
					<dim>-1</dim>
					<dim>-1</dim>
				</port>
				<port id="1" precision="FP32">
					<dim>1</dim>
					<dim>512</dim>
					<dim>1</dim>
					<dim>1</dim>
				</port>
			</input>
			<output>
				<port id="2" precision="FP32" names="885_1">
					<dim>-1</dim>
					<dim>512</dim>
					<dim>-1</dim>
					<dim>-1</dim>
				</port>
			</output>
		</layer>
		<layer id="336" name="__module.model.model.backbone.model.encoder.stages.1.layers.2.layer.2.normalization/aten::add/Add_1/fq_output_0/input_low" type="Const" version="opset1">
			<data element_type="f32" shape="" offset="1210356" size="4" />
			<output>
				<port id="0" precision="FP32" />
			</output>
		</layer>
		<layer id="337" name="__module.model.model.backbone.model.encoder.stages.1.layers.2.layer.2.normalization/aten::add/Add_1/fq_output_0/input_high" type="Const" version="opset1">
			<data element_type="f32" shape="" offset="1210360" size="4" />
			<output>
				<port id="0" precision="FP32" />
			</output>
		</layer>
		<layer id="338" name="__module.model.model.backbone.model.encoder.stages.1.layers.2.layer.2.normalization/aten::add/Add_1/fq_output_0/output_low" type="Const" version="opset1">
			<data element_type="f32" shape="" offset="1210356" size="4" />
			<output>
				<port id="0" precision="FP32" />
			</output>
		</layer>
		<layer id="339" name="__module.model.model.backbone.model.encoder.stages.1.layers.2.layer.2.normalization/aten::add/Add_1/fq_output_0/output_high" type="Const" version="opset1">
			<data element_type="f32" shape="" offset="1210360" size="4" />
			<output>
				<port id="0" precision="FP32" />
			</output>
		</layer>
		<layer id="340" name="__module.model.model.backbone.model.encoder.stages.1.layers.2.layer.2.normalization/aten::add/Add_1/fq_output_0" type="FakeQuantize" version="opset1">
			<data levels="256" auto_broadcast="numpy" />
			<input>
				<port id="0" precision="FP32">
					<dim>-1</dim>
					<dim>512</dim>
					<dim>-1</dim>
					<dim>-1</dim>
				</port>
				<port id="1" precision="FP32" />
				<port id="2" precision="FP32" />
				<port id="3" precision="FP32" />
				<port id="4" precision="FP32" />
			</input>
			<output>
				<port id="5" precision="FP32">
					<dim>-1</dim>
					<dim>512</dim>
					<dim>-1</dim>
					<dim>-1</dim>
				</port>
			</output>
		</layer>
		<layer id="341" name="__module.model.model.backbone.model.encoder.stages.1.layers.2/aten::add_/Add" type="Add" version="opset1">
			<data auto_broadcast="numpy" />
			<input>
				<port id="0" precision="FP32">
…
		<edge from-layer="3894" from-port="0" to-layer="3896" to-port="3" />
		<edge from-layer="3895" from-port="0" to-layer="3896" to-port="4" />
		<edge from-layer="3896" from-port="5" to-layer="3898" to-port="0" />
		<edge from-layer="3897" from-port="0" to-layer="3898" to-port="1" />
		<edge from-layer="3898" from-port="2" to-layer="3900" to-port="0" />
		<edge from-layer="3899" from-port="0" to-layer="3900" to-port="1" />
		<edge from-layer="3900" from-port="2" to-layer="3901" to-port="1" />
		<edge from-layer="3901" from-port="2" to-layer="3906" to-port="0" />
		<edge from-layer="3902" from-port="0" to-layer="3906" to-port="1" />
		<edge from-layer="3903" from-port="0" to-layer="3906" to-port="2" />
		<edge from-layer="3904" from-port="0" to-layer="3906" to-port="3" />
		<edge from-layer="3905" from-port="0" to-layer="3906" to-port="4" />
		<edge from-layer="3906" from-port="5" to-layer="3908" to-port="0" />
		<edge from-layer="3907" from-port="0" to-layer="3908" to-port="1" />
		<edge from-layer="3908" from-port="2" to-layer="3913" to-port="0" />
		<edge from-layer="3909" from-port="0" to-layer="3913" to-port="1" />
		<edge from-layer="3910" from-port="0" to-layer="3913" to-port="2" />
		<edge from-layer="3911" from-port="0" to-layer="3913" to-port="3" />
		<edge from-layer="3912" from-port="0" to-layer="3913" to-port="4" />
		<edge from-layer="3913" from-port="5" to-layer="3915" to-port="0" />
		<edge from-layer="3914" from-port="0" to-layer="3915" to-port="1" />
		<edge from-layer="3915" from-port="2" to-layer="3920" to-port="0" />
		<edge from-layer="3916" from-port="0" to-layer="3917" to-port="0" />
		<edge from-layer="3917" from-port="1" to-layer="3919" to-port="0" />
		<edge from-layer="3918" from-port="0" to-layer="3919" to-port="1" />
		<edge from-layer="3919" from-port="2" to-layer="3920" to-port="1" />
		<edge from-layer="3920" from-port="2" to-layer="3922" to-port="0" />
		<edge from-layer="3921" from-port="0" to-layer="3922" to-port="1" />
		<edge from-layer="3922" from-port="2" to-layer="3927" to-port="0" />
		<edge from-layer="3923" from-port="0" to-layer="3927" to-port="1" />
		<edge from-layer="3924" from-port="0" to-layer="3927" to-port="2" />
		<edge from-layer="3925" from-port="0" to-layer="3927" to-port="3" />
		<edge from-layer="3926" from-port="0" to-layer="3927" to-port="4" />
		<edge from-layer="3927" from-port="5" to-layer="3928" to-port="1" />
		<edge from-layer="3928" from-port="2" to-layer="3933" to-port="0" />
		<edge from-layer="3929" from-port="0" to-layer="3933" to-port="1" />
		<edge from-layer="3930" from-port="0" to-layer="3933" to-port="2" />
		<edge from-layer="3931" from-port="0" to-layer="3933" to-port="3" />
		<edge from-layer="3932" from-port="0" to-layer="3933" to-port="4" />
		<edge from-layer="3933" from-port="5" to-layer="3935" to-port="0" />
		<edge from-layer="3934" from-port="0" to-layer="3935" to-port="1" />
		<edge from-layer="3935" from-port="2" to-layer="3937" to-port="0" />
		<edge from-layer="3936" from-port="0" to-layer="3937" to-port="1" />
		<edge from-layer="3937" from-port="2" to-layer="3939" to-port="0" />
		<edge from-layer="3938" from-port="0" to-layer="3939" to-port="1" />
		<edge from-layer="3939" from-port="2" to-layer="3944" to-port="0" />
		<edge from-layer="3940" from-port="0" to-layer="3944" to-port="1" />
		<edge from-layer="3941" from-port="0" to-layer="3944" to-port="2" />
		<edge from-layer="3942" from-port="0" to-layer="3944" to-port="3" />
		<edge from-layer="3943" from-port="0" to-layer="3944" to-port="4" />
		<edge from-layer="3944" from-port="5" to-layer="3949" to-port="0" />
		<edge from-layer="3944" from-port="5" to-layer="3970" to-port="0" />
		<edge from-layer="3945" from-port="0" to-layer="3946" to-port="0" />
		<edge from-layer="3946" from-port="1" to-layer="3948" to-port="0" />
		<edge from-layer="3947" from-port="0" to-layer="3948" to-port="1" />
		<edge from-layer="3948" from-port="2" to-layer="3949" to-port="1" />
		<edge from-layer="3949" from-port="2" to-layer="3951" to-port="0" />
		<edge from-layer="3950" from-port="0" to-layer="3951" to-port="1" />
		<edge from-layer="3951" from-port="2" to-layer="3952" to-port="0" />
		<edge from-layer="3952" from-port="1" to-layer="3957" to-port="0" />
		<edge from-layer="3953" from-port="0" to-layer="3957" to-port="1" />
		<edge from-layer="3954" from-port="0" to-layer="3957" to-port="2" />
		<edge from-layer="3955" from-port="0" to-layer="3957" to-port="3" />
		<edge from-layer="3956" from-port="0" to-layer="3957" to-port="4" />
		<edge from-layer="3957" from-port="5" to-layer="3962" to-port="0" />
		<edge from-layer="3958" from-port="0" to-layer="3959" to-port="0" />
		<edge from-layer="3959" from-port="1" to-layer="3961" to-port="0" />
		<edge from-layer="3960" from-port="0" to-layer="3961" to-port="1" />
		<edge from-layer="3961" from-port="2" to-layer="3962" to-port="1" />
		<edge from-layer="3962" from-port="2" to-layer="3964" to-port="0" />
		<edge from-layer="3963" from-port="0" to-layer="3964" to-port="1" />
		<edge from-layer="3964" from-port="2" to-layer="3969" to-port="0" />
		<edge from-layer="3965" from-port="0" to-layer="3969" to-port="1" />
		<edge from-layer="3966" from-port="0" to-layer="3969" to-port="2" />
		<edge from-layer="3967" from-port="0" to-layer="3969" to-port="3" />
		<edge from-layer="3968" from-port="0" to-layer="3969" to-port="4" />
		<edge from-layer="3969" from-port="5" to-layer="3970" to-port="1" />
		<edge from-layer="3970" from-port="2" to-layer="3975" to-port="0" />
		<edge from-layer="3971" from-port="0" to-layer="3975" to-port="1" />
		<edge from-layer="3972" from-port="0" to-layer="3975" to-port="2" />
		<edge from-layer="3973" from-port="0" to-layer="3975" to-port="3" />
		<edge from-layer="3974" from-port="0" to-layer="3975" to-port="4" />
		<edge from-layer="3975" from-port="5" to-layer="3977" to-port="0" />
		<edge from-layer="3976" from-port="0" to-layer="3977" to-port="1" />
		<edge from-layer="3977" from-port="2" to-layer="3979" to-port="0" />
		<edge from-layer="3978" from-port="0" to-layer="3979" to-port="1" />
		<edge from-layer="3979" from-port="2" to-layer="3981" to-port="0" />
		<edge from-layer="3980" from-port="0" to-layer="3981" to-port="1" />
		<edge from-layer="3981" from-port="2" to-layer="3986" to-port="0" />
		<edge from-layer="3982" from-port="0" to-layer="3986" to-port="1" />
		<edge from-layer="3983" from-port="0" to-layer="3986" to-port="2" />
		<edge from-layer="3984" from-port="0" to-layer="3986" to-port="3" />
		<edge from-layer="3985" from-port="0" to-layer="3986" to-port="4" />
		<edge from-layer="3986" from-port="5" to-layer="4507" to-port="0" />
		<edge from-layer="3986" from-port="5" to-layer="4105" to-port="0" />
		<edge from-layer="3986" from-port="5" to-layer="4054" to-port="0" />
		<edge from-layer="3986" from-port="5" to-layer="4142" to-port="0" />
		<edge from-layer="3986" from-port="5" to-layer="3991" to-port="0" />
		<edge from-layer="3987" from-port="0" to-layer="3988" to-port="0" />
		<edge from-layer="3988" from-port="1" to-layer="3990" to-port="0" />
		<edge from-layer="3989" from-port="0" to-layer="3990" to-port="1" />
		<edge from-layer="3990" from-port="2" to-layer="3991" to-port="1" />
		<edge from-layer="3991" from-port="2" to-layer="3993" to-port="0" />
		<edge from-layer="3992" from-port="0" to-layer="3993" to-port="1" />
		<edge from-layer="3993" from-port="2" to-layer="3994" to-port="0" />
		<edge from-layer="3994" from-port="1" to-layer="3999" to-port="0" />
		<edge from-layer="3995" from-port="0" to-layer="3999" to-port="1" />
		<edge from-layer="3996" from-port="0" to-layer="3999" to-port="2" />
		<edge from-layer="3997" from-port="0" to-layer="3999" to-port="3" />
		<edge from-layer="3998" from-port="0" to-layer="3999" to-port="4" />
		<edge from-layer="3999" from-port="5" to-layer="4004" to-port="0" />
		<edge from-layer="4000" from-port="0" to-layer="4001" to-port="0" />
		<edge from-layer="4001" from-port="1" to-layer="4003" to-port="0" />
		<edge from-layer="4002" from-port="0" to-layer="4003" to-port="1" />
		<edge from-layer="4003" from-port="2" to-layer="4004" to-port="1" />
		<edge from-layer="4004" from-port="2" to-layer="4006" to-port="0" />
		<edge from-layer="4005" from-port="0" to-layer="4006" to-port="1" />
		<edge from-layer="4006" from-port="2" to-layer="4007" to-port="0" />
		<edge from-layer="4007" from-port="1" to-layer="4012" to-port="0" />
		<edge from-layer="4008" from-port="0" to-layer="4012" to-port="1" />
		<edge from-layer="4009" from-port="0" to-layer="4012" to-port="2" />
		<edge from-layer="4010" from-port="0" to-layer="4012" to-port="3" />
		<edge from-layer="4011" from-port="0" to-layer="4012" to-port="4" />
		<edge from-layer="4012" from-port="5" to-layer="4017" to-port="0" />
		<edge from-layer="4013" from-port="0" to-layer="4014" to-port="0" />
		<edge from-layer="4014" from-port="1" to-layer="4016" to-port="0" />
		<edge from-layer="4015" from-port="0" to-layer="4016" to-port="1" />
		<edge from-layer="4016" from-port="2" to-layer="4017" to-port="1" />
		<edge from-layer="4017" from-port="2" to-layer="4019" to-port="0" />
		<edge from-layer="4018" from-port="0" to-layer="4019" to-port="1" />
		<edge from-layer="4019" from-port="2" to-layer="4029" to-port="0" />
		<edge from-layer="4020" from-port="1" to-layer="4024" to-port="1" />
		<edge from-layer="4020" from-port="1" to-layer="4022" to-port="0" />
		<edge from-layer="4021" from-port="0" to-layer="4022" to-port="1" />
		<edge from-layer="4022" from-port="2" to-layer="4027" to-port="0" />
		<edge from-layer="4023" from-port="0" to-layer="4024" to-port="0" />
		<edge from-layer="4024" from-port="2" to-layer="4026" to-port="0" />
		<edge from-layer="4025" from-port="0" to-layer="4026" to-port="1" />
		<edge from-layer="4026" from-port="2" to-layer="4027" to-port="1" />
		<edge from-layer="4027" from-port="2" to-layer="4028" to-port="0" />
		<edge from-layer="4028" from-port="1" to-layer="4029" to-port="1" />
		<edge from-layer="4029" from-port="2" to-layer="4030" to-port="0" />
		<edge from-layer="4030" from-port="1" to-layer="4173" to-port="0" />
		<edge from-layer="4030" from-port="1" to-layer="4031" to-port="0" />
		<edge from-layer="4030" from-port="1" to-layer="4036" to-port="0" />
		<edge from-layer="4030" from-port="1" to-layer="4400" to-port="0" />
		<edge from-layer="4031" from-port="2" to-layer="4412" to-port="4" />
		<edge from-layer="4032" from-port="0" to-layer="4036" to-port="1" />
		<edge from-layer="4033" from-port="0" to-layer="4036" to-port="2" />
		<edge from-layer="4034" from-port="0" to-layer="4036" to-port="3" />
		<edge from-layer="4035" from-port="0" to-layer="4036" to-port="4" />
		<edge from-layer="4036" from-port="5" to-layer="4037" to-port="0" />
		<edge from-layer="4037" from-port="2" to-layer="4039" to-port="0" />
		<edge from-layer="4038" from-port="0" to-layer="4039" to-port="1" />
		<edge from-layer="4039" from-port="2" to-layer="4040" to-port="0" />
		<edge from-layer="4040" from-port="1" to-layer="4045" to-port="0" />
		<edge from-layer="4041" from-port="0" to-layer="4045" to-port="1" />
		<edge from-layer="4042" from-port="0" to-layer="4045" to-port="2" />
		<edge from-layer="4043" from-port="0" to-layer="4045" to-port="3" />
		<edge from-layer="4044" from-port="0" to-layer="4045" to-port="4" />
		<edge from-layer="4045" from-port="5" to-layer="4046" to-port="0" />
		<edge from-layer="4046" from-port="2" to-layer="4048" to-port="0" />
		<edge from-layer="4047" from-port="0" to-layer="4048" to-port="1" />
		<edge from-layer="4048" from-port="2" to-layer="4053" to-port="0" />
		<edge from-layer="4049" from-port="0" to-layer="4053" to-port="1" />
		<edge from-layer="4050" from-port="0" to-layer="4053" to-port="2" />
		<edge from-layer="4051" from-port="0" to-layer="4053" to-port="3" />
		<edge from-layer="4052" from-port="0" to-layer="4053" to-port="4" />
		<edge from-layer="4053" from-port="5" to-layer="4185" to-port="1" />
		<edge from-layer="4053" from-port="5" to-layer="4054" to-port="1" />
		<edge from-layer="4054" from-port="2" to-layer="4059" to-port="0" />
		<edge from-layer="4055" from-port="0" to-layer="4059" to-port="1" />
		<edge from-layer="4056" from-port="0" to-layer="4059" to-port="2" />
		<edge from-layer="4057" from-port="0" to-layer="4059" to-port="3" />
		<edge from-layer="4058" from-port="0" to-layer="4059" to-port="4" />
		<edge from-layer="4059" from-port="5" to-layer="4081" to-port="0" />
		<edge from-layer="4059" from-port="5" to-layer="4064" to-port="0" />
		<edge from-layer="4060" from-port="0" to-layer="4061" to-port="0" />
		<edge from-layer="4061" from-port="1" to-layer="4063" to-port="0" />
		<edge from-layer="4062" from-port="0" to-layer="4063" to-port="1" />
		<edge from-layer="4063" from-port="2" to-layer="4064" to-port="1" />
		<edge from-layer="4064" from-port="2" to-layer="4066" to-port="0" />
		<edge from-layer="4065" from-port="0" to-layer="4066" to-port="1" />
		<edge from-layer="4066" from-port="2" to-layer="4071" to-port="0" />
		<edge from-layer="4067" from-port="0" to-layer="4071" to-port="1" />
		<edge from-layer="4068" from-port="0" to-layer="4071" to-port="2" />
		<edge from-layer="4069" from-port="0" to-layer="4071" to-port="3" />
		<edge from-layer="4070" from-port="0" to-layer="4071" to-port="4" />
		<edge from-layer="4071" from-port="5" to-layer="4073" to-port="0" />
		<edge from-layer="4072" from-port="0" to-layer="4073" to-port="1" />
		<edge from-layer="4073" from-port="2" to-layer="4075" to-port="0" />
		<edge from-layer="4074" from-port="0" to-layer="4075" to-port="1" />
		<edge from-layer="4075" from-port="2" to-layer="4076" to-port="0" />
		<edge from-layer="4076" from-port="2" to-layer="4094" to-port="0" />
		<edge from-layer="4077" from-port="0" to-layer="4078" to-port="0" />
		<edge from-layer="4078" from-port="1" to-layer="4080" to-port="0" />
		<edge from-layer="4079" from-port="0" to-layer="4080" to-port="1" />
		<edge from-layer="4080" from-port="2" to-layer="4081" to-port="1" />
		<edge from-layer="4081" from-port="2" to-layer="4083" to-port="0" />
		<edge from-layer="4082" from-port="0" to-layer="4083" to-port="1" />
		<edge from-layer="4083" from-port="2" to-layer="4088" to-port="0" />
		<edge from-layer="4084" from-port="0" to-layer="4088" to-port="1" />
		<edge from-layer="4085" from-port="0" to-layer="4088" to-port="2" />
		<edge from-layer="4086" from-port="0" to-layer="4088" to-port="3" />
		<edge from-layer="4087" from-port="0" to-layer="4088" to-port="4" />
		<edge from-layer="4088" from-port="5" to-layer="4090" to-port="0" />
		<edge from-layer="4089" from-port="0" to-layer="4090" to-port="1" />
		<edge from-layer="4090" from-port="2" to-layer="4092" to-port="0" />
		<edge from-layer="4091" from-port="0" to-layer="4092" to-port="1" />
		<edge from-layer="4092" from-port="2" to-layer="4093" to-port="0" />
		<edge from-layer="4093" from-port="2" to-layer="4094" to-port="1" />
		<edge from-layer="4094" from-port="2" to-layer="4095" to-port="0" />
		<edge from-layer="4095" from-port="1" to-layer="4100" to-port="0" />
		<edge from-layer="4096" from-port="0" to-layer="4100" to-port="1" />
		<edge from-layer="4097" from-port="0" to-layer="4100" to-port="2" />
		<edge from-layer="4098" from-port="0" to-layer="4100" to-port="3" />
		<edge from-layer="4099" from-port="0" to-layer="4100" to-port="4" />
		<edge from-layer="4100" from-port="5" to-layer="4118" to-port="0" />
		<edge from-layer="4101" from-port="0" to-layer="4102" to-port="0" />
		<edge from-layer="4102" from-port="1" to-layer="4104" to-port="0" />
		<edge from-layer="4103" from-port="0" to-layer="4104" to-port="1" />
		<edge from-layer="4104" from-port="2" to-layer="4105" to-port="1" />
		<edge from-layer="4105" from-port="2" to-layer="4107" to-port="0" />
		<edge from-layer="4106" from-port="0" to-layer="4107" to-port="1" />
		<edge from-layer="4107" from-port="2" to-layer="4112" to-port="0" />
		<edge from-layer="4108" from-port="0" to-layer="4112" to-port="1" />
		<edge from-layer="4109" from-port="0" to-layer="4112" to-port="2" />
		<edge from-layer="4110" from-port="0" to-layer="4112" to-port="3" />
		<edge from-layer="4111" from-port="0" to-layer="4112" to-port="4" />
		<edge from-layer="4112" from-port="5" to-layer="4114" to-port="0" />
		<edge from-layer="4113" from-port="0" to-layer="4114" to-port="1" />
		<edge from-layer="4114" from-port="2" to-layer="4116" to-port="0" />
		<edge from-layer="4115" from-port="0" to-layer="4116" to-port="1" />
		<edge from-layer="4116" from-port="2" to-layer="4117" to-port="0" />
		<edge from-layer="4117" from-port="2" to-layer="4118" to-port="1" />
		<edge from-layer="4118" from-port="2" to-layer="4123" to-port="0" />
		<edge from-layer="4119" from-port="0" to-layer="4123" to-port="1" />
		<edge from-layer="4120" from-port="0" to-layer="4123" to-port="2" />
		<edge from-layer="4121" from-port="0" to-layer="4123" to-port="3" />
		<edge from-layer="4122" from-port="0" to-layer="4123" to-port="4" />
		<edge from-layer="4123" from-port="5" to-layer="4125" to-port="0" />
		<edge from-layer="4124" from-port="0" to-layer="4125" to-port="1" />
		<edge from-layer="4125" from-port="2" to-layer="4127" to-port="0" />
		<edge from-layer="4126" from-port="0" to-layer="4127" to-port="1" />
		<edge from-layer="4127" from-port="2" to-layer="4129" to-port="0" />
		<edge from-layer="4128" from-port="0" to-layer="4129" to-port="1" />
		<edge from-layer="4129" from-port="2" to-layer="4134" to-port="0" />
		<edge from-layer="4130" from-port="0" to-layer="4131" to-port="0" />
		<edge from-layer="4131" from-port="1" to-layer="4133" to-port="0" />
		<edge from-layer="4132" from-port="0" to-layer="4133" to-port="1" />
		<edge from-layer="4133" from-port="2" to-layer="4134" to-port="1" />
		<edge from-layer="4134" from-port="2" to-layer="4136" to-port="0" />
		<edge from-layer="4135" from-port="0" to-layer="4136" to-port="1" />
		<edge from-layer="4136" from-port="2" to-layer="4141" to-port="0" />
		<edge from-layer="4137" from-port="0" to-layer="4141" to-port="1" />
		<edge from-layer="4138" from-port="0" to-layer="4141" to-port="2" />
		<edge from-layer="4139" from-port="0" to-layer="4141" to-port="3" />
		<edge from-layer="4140" from-port="0" to-layer="4141" to-port="4" />
		<edge from-layer="4141" from-port="5" to-layer="4142" to-port="1" />
		<edge from-layer="4142" from-port="2" to-layer="4147" to-port="0" />
		<edge from-layer="4143" from-port="0" to-layer="4147" to-port="1" />
		<edge from-layer="4144" from-port="0" to-layer="4147" to-port="2" />
		<edge from-layer="4145" from-port="0" to-layer="4147" to-port="3" />
		<edge from-layer="4146" from-port="0" to-layer="4147" to-port="4" />
		<edge from-layer="4147" from-port="5" to-layer="4149" to-port="0" />
		<edge from-layer="4148" from-port="0" to-layer="4149" to-port="1" />
		<edge from-layer="4149" from-port="2" to-layer="4151" to-port="0" />
		<edge from-layer="4150" from-port="0" to-layer="4151" to-port="1" />
		<edge from-layer="4151" from-port="2" to-layer="4153" to-port="0" />
		<edge from-layer="4152" from-port="0" to-layer="4153" to-port="1" />
		<edge from-layer="4153" from-port="2" to-layer="4158" to-port="0" />
		<edge from-layer="4154" from-port="0" to-layer="4158" to-port="1" />
		<edge from-layer="4155" from-port="0" to-layer="4158" to-port="2" />
		<edge from-layer="4156" from-port="0" to-layer="4158" to-port="3" />
		<edge from-layer="4157" from-port="0" to-layer="4158" to-port="4" />
		<edge from-layer="4158" from-port="5" to-layer="4185" to-port="0" />
		<edge from-layer="4158" from-port="5" to-layer="4308" to-port="0" />
		<edge from-layer="4159" from-port="0" to-layer="4160" to-port="0" />
		<edge from-layer="4160" from-port="1" to-layer="4162" to-port="0" />
		<edge from-layer="4161" from-port="0" to-layer="4162" to-port="1" />
		<edge from-layer="4162" from-port="2" to-layer="4163" to-port="1" />
		<edge from-layer="4163" from-port="2" to-layer="4165" to-port="0" />
		<edge from-layer="4164" from-port="0" to-layer="4165" to-port="1" />
		<edge from-layer="4165" from-port="2" to-layer="4167" to-port="0" />
		<edge from-layer="4166" from-port="0" to-layer="4167" to-port="1" />
		<edge from-layer="4167" from-port="2" to-layer="4169" to-port="0" />
		<edge from-layer="4168" from-port="0" to-layer="4169" to-port="1" />
		<edge from-layer="4169" from-port="2" to-layer="4170" to-port="0" />
		<edge from-layer="4170" from-port="2" to-layer="4171" to-port="0" />
		<edge from-layer="4171" from-port="3" to-layer="4172" to-port="0" />
		<edge from-layer="4171" from-port="5" to-layer="4254" to-port="0" />
		<edge from-layer="4171" from-port="4" to-layer="4247" to-port="0" />
		<edge from-layer="4172" from-port="2" to-layer="4241" to-port="0" />
		<edge from-layer="4173" from-port="2" to-layer="4174" to-port="0" />
		<edge from-layer="4174" from-port="2" to-layer="4179" to-port="0" />
		<edge from-layer="4174" from-port="2" to-layer="4216" to-port="0" />
		<edge from-layer="4175" from-port="0" to-layer="4179" to-port="1" />
		<edge from-layer="4176" from-port="0" to-layer="4179" to-port="2" />
		<edge from-layer="4177" from-port="0" to-layer="4179" to-port="3" />
		<edge from-layer="4178" from-port="0" to-layer="4179" to-port="4" />
		<edge from-layer="4179" from-port="5" to-layer="4184" to-port="0" />
		<edge from-layer="4180" from-port="0" to-layer="4184" to-port="1" />
		<edge from-layer="4181" from-port="0" to-layer="4184" to-port="2" />
		<edge from-layer="4182" from-port="0" to-layer="4184" to-port="3" />
		<edge from-layer="4183" from-port="0" to-layer="4184" to-port="4" />
		<edge from-layer="4184" from-port="5" to-layer="4230" to-port="0" />
		<edge from-layer="4185" from-port="2" to-layer="4190" to-port="0" />
		<edge from-layer="4186" from-port="0" to-layer="4190" to-port="1" />
		<edge from-layer="4187" from-port="0" to-layer="4190" to-port="2" />
		<edge from-layer="4188" from-port="0" to-layer="4190" to-port="3" />
		<edge from-layer="4189" from-port="0" to-layer="4190" to-port="4" />
		<edge from-layer="4190" from-port="5" to-layer="4195" to-port="0" />
		<edge from-layer="4190" from-port="5" to-layer="4266" to-port="0" />
		<edge from-layer="4191" from-port="0" to-layer="4192" to-port="0" />
		<edge from-layer="4192" from-port="1" to-layer="4194" to-port="0" />
		<edge from-layer="4193" from-port="0" to-layer="4194" to-port="1" />
		<edge from-layer="4194" from-port="2" to-layer="4195" to-port="1" />
		<edge from-layer="4195" from-port="2" to-layer="4197" to-port="0" />
		<edge from-layer="4196" from-port="0" to-layer="4197" to-port="1" />
		<edge from-layer="4197" from-port="2" to-layer="4202" to-port="0" />
		<edge from-layer="4198" from-port="0" to-layer="4202" to-port="1" />
		<edge from-layer="4199" from-port="0" to-layer="4202" to-port="2" />
		<edge from-layer="4200" from-port="0" to-layer="4202" to-port="3" />
		<edge from-layer="4201" from-port="0" to-layer="4202" to-port="4" />
		<edge from-layer="4202" from-port="5" to-layer="4204" to-port="0" />
		<edge from-layer="4203" from-port="0" to-layer="4204" to-port="1" />
		<edge from-layer="4204" from-port="2" to-layer="4206" to-port="0" />
		<edge from-layer="4205" from-port="0" to-layer="4206" to-port="1" />
		<edge from-layer="4206" from-port="2" to-layer="4211" to-port="0" />
		<edge from-layer="4207" from-port="0" to-layer="4211" to-port="1" />
		<edge from-layer="4208" from-port="0" to-layer="4211" to-port="2" />
		<edge from-layer="4209" from-port="0" to-layer="4211" to-port="3" />
		<edge from-layer="4210" from-port="0" to-layer="4211" to-port="4" />
		<edge from-layer="4211" from-port="5" to-layer="4222" to-port="0" />
		<edge from-layer="4212" from-port="0" to-layer="4216" to-port="1" />
		<edge from-layer="4213" from-port="0" to-layer="4216" to-port="2" />
		<edge from-layer="4214" from-port="0" to-layer="4216" to-port="3" />
		<edge from-layer="4215" from-port="0" to-layer="4216" to-port="4" />
		<edge from-layer="4216" from-port="5" to-layer="4221" to-port="0" />
		<edge from-layer="4217" from-port="0" to-layer="4221" to-port="1" />
		<edge from-layer="4218" from-port="0" to-layer="4221" to-port="2" />
		<edge from-layer="4219" from-port="0" to-layer="4221" to-port="3" />
		<edge from-layer="4220" from-port="0" to-layer="4221" to-port="4" />
		<edge from-layer="4221" from-port="5" to-layer="4222" to-port="1" />
		<edge from-layer="4222" from-port="2" to-layer="4224" to-port="0" />
		<edge from-layer="4223" from-port="0" to-layer="4224" to-port="1" />
		<edge from-layer="4224" from-port="2" to-layer="4229" to-port="0" />
		<edge from-layer="4225" from-port="0" to-layer="4229" to-port="1" />
		<edge from-layer="4226" from-port="0" to-layer="4229" to-port="2" />
		<edge from-layer="4227" from-port="0" to-layer="4229" to-port="3" />
		<edge from-layer="4228" from-port="0" to-layer="4229" to-port="4" />
		<edge from-layer="4229" from-port="5" to-layer="4230" to-port="1" />
		<edge from-layer="4230" from-port="2" to-layer="4232" to-port="0" />
		<edge from-layer="4231" from-port="0" to-layer="4232" to-port="1" />
		<edge from-layer="4232" from-port="2" to-layer="4234" to-port="0" />
		<edge from-layer="4233" from-port="0" to-layer="4234" to-port="1" />
		<edge from-layer="4234" from-port="2" to-layer="4236" to-port="0" />
		<edge from-layer="4235" from-port="0" to-layer="4236" to-port="1" />
		<edge from-layer="4236" from-port="2" to-layer="4238" to-port="0" />
		<edge from-layer="4237" from-port="0" to-layer="4238" to-port="1" />
		<edge from-layer="4238" from-port="2" to-layer="4240" to-port="0" />
		<edge from-layer="4239" from-port="0" to-layer="4240" to-port="2" />
		<edge from-layer="4240" from-port="3" to-layer="4241" to-port="1" />
		<edge from-layer="4240" from-port="4" to-layer="4248" to-port="1" />
		<edge from-layer="4240" from-port="5" to-layer="4255" to-port="1" />
		<edge from-layer="4241" from-port="2" to-layer="4246" to-port="0" />
		<edge from-layer="4242" from-port="0" to-layer="4246" to-port="1" />
		<edge from-layer="4243" from-port="0" to-layer="4246" to-port="2" />
		<edge from-layer="4244" from-port="0" to-layer="4246" to-port="3" />
		<edge from-layer="4245" from-port="0" to-layer="4246" to-port="4" />
		<edge from-layer="4246" from-port="5" to-layer="4261" to-port="0" />
		<edge from-layer="4247" from-port="2" to-layer="4248" to-port="0" />
		<edge from-layer="4248" from-port="2" to-layer="4253" to-port="0" />
		<edge from-layer="4249" from-port="0" to-layer="4253" to-port="1" />
		<edge from-layer="4250" from-port="0" to-layer="4253" to-port="2" />
		<edge from-layer="4251" from-port="0" to-layer="4253" to-port="3" />
		<edge from-layer="4252" from-port="0" to-layer="4253" to-port="4" />
		<edge from-layer="4253" from-port="5" to-layer="4261" to-port="1" />
		<edge from-layer="4254" from-port="2" to-layer="4255" to-port="0" />
		<edge from-layer="4255" from-port="2" to-layer="4260" to-port="0" />
		<edge from-layer="4256" from-port="0" to-layer="4260" to-port="1" />
		<edge from-layer="4257" from-port="0" to-layer="4260" to-port="2" />
		<edge from-layer="4258" from-port="0" to-layer="4260" to-port="3" />
		<edge from-layer="4259" from-port="0" to-layer="4260" to-port="4" />
		<edge from-layer="4260" from-port="5" to-layer="4261" to-port="2" />
		<edge from-layer="4261" from-port="3" to-layer="4281" to-port="0" />
		<edge from-layer="4262" from-port="0" to-layer="4263" to-port="0" />
		<edge from-layer="4263" from-port="1" to-layer="4265" to-port="0" />
		<edge from-layer="4264" from-port="0" to-layer="4265" to-port="1" />
		<edge from-layer="4265" from-port="2" to-layer="4266" to-port="1" />
		<edge from-layer="4266" from-port="2" to-layer="4268" to-port="0" />
		<edge from-layer="4267" from-port="0" to-layer="4268" to-port="1" />
		<edge from-layer="4268" from-port="2" to-layer="4270" to-port="0" />
		<edge from-layer="4269" from-port="0" to-layer="4270" to-port="1" />
		<edge from-layer="4270" from-port="2" to-layer="4271" to-port="0" />
		<edge from-layer="4271" from-port="1" to-layer="4276" to-port="0" />
		<edge from-layer="4272" from-port="0" to-layer="4276" to-port="1" />
		<edge from-layer="4273" from-port="0" to-layer="4276" to-port="2" />
		<edge from-layer="4274" from-port="0" to-layer="4276" to-port="3" />
		<edge from-layer="4275" from-port="0" to-layer="4276" to-port="4" />
		<edge from-layer="4276" from-port="5" to-layer="4278" to-port="0" />
		<edge from-layer="4277" from-port="0" to-layer="4278" to-port="1" />
		<edge from-layer="4278" from-port="2" to-layer="4280" to-port="0" />
		<edge from-layer="4279" from-port="0" to-layer="4280" to-port="1" />
		<edge from-layer="4280" from-port="2" to-layer="4281" to-port="1" />
		<edge from-layer="4281" from-port="2" to-layer="4286" to-port="0" />
		<edge from-layer="4282" from-port="0" to-layer="4286" to-port="1" />
		<edge from-layer="4283" from-port="0" to-layer="4286" to-port="2" />
		<edge from-layer="4284" from-port="0" to-layer="4286" to-port="3" />
		<edge from-layer="4285" from-port="0" to-layer="4286" to-port="4" />
		<edge from-layer="4286" from-port="5" to-layer="4288" to-port="0" />
		<edge from-layer="4287" from-port="0" to-layer="4288" to-port="1" />
		<edge from-layer="4288" from-port="2" to-layer="4293" to-port="0" />
		<edge from-layer="4289" from-port="0" to-layer="4293" to-port="1" />
		<edge from-layer="4290" from-port="0" to-layer="4293" to-port="2" />
		<edge from-layer="4291" from-port="0" to-layer="4293" to-port="3" />
		<edge from-layer="4292" from-port="0" to-layer="4293" to-port="4" />
		<edge from-layer="4293" from-port="5" to-layer="4295" to-port="0" />
		<edge from-layer="4294" from-port="0" to-layer="4295" to-port="1" />
		<edge from-layer="4295" from-port="2" to-layer="4300" to-port="0" />
		<edge from-layer="4296" from-port="0" to-layer="4297" to-port="0" />
		<edge from-layer="4297" from-port="1" to-layer="4299" to-port="0" />
		<edge from-layer="4298" from-port="0" to-layer="4299" to-port="1" />
		<edge from-layer="4299" from-port="2" to-layer="4300" to-port="1" />
		<edge from-layer="4300" from-port="2" to-layer="4302" to-port="0" />
		<edge from-layer="4301" from-port="0" to-layer="4302" to-port="1" />
		<edge from-layer="4302" from-port="2" to-layer="4307" to-port="0" />
		<edge from-layer="4303" from-port="0" to-layer="4307" to-port="1" />
		<edge from-layer="4304" from-port="0" to-layer="4307" to-port="2" />
		<edge from-layer="4305" from-port="0" to-layer="4307" to-port="3" />
		<edge from-layer="4306" from-port="0" to-layer="4307" to-port="4" />
		<edge from-layer="4307" from-port="5" to-layer="4308" to-port="1" />
		<edge from-layer="4308" from-port="2" to-layer="4313" to-port="0" />
		<edge from-layer="4309" from-port="0" to-layer="4313" to-port="1" />
		<edge from-layer="4310" from-port="0" to-layer="4313" to-port="2" />
		<edge from-layer="4311" from-port="0" to-layer="4313" to-port="3" />
		<edge from-layer="4312" from-port="0" to-layer="4313" to-port="4" />
		<edge from-layer="4313" from-port="5" to-layer="4315" to-port="0" />
		<edge from-layer="4314" from-port="0" to-layer="4315" to-port="1" />
		<edge from-layer="4315" from-port="2" to-layer="4317" to-port="0" />
		<edge from-layer="4316" from-port="0" to-layer="4317" to-port="1" />
		<edge from-layer="4317" from-port="2" to-layer="4319" to-port="0" />
		<edge from-layer="4318" from-port="0" to-layer="4319" to-port="1" />
		<edge from-layer="4319" from-port="2" to-layer="4324" to-port="0" />
		<edge from-layer="4320" from-port="0" to-layer="4324" to-port="1" />
		<edge from-layer="4321" from-port="0" to-layer="4324" to-port="2" />
		<edge from-layer="4322" from-port="0" to-layer="4324" to-port="3" />
		<edge from-layer="4323" from-port="0" to-layer="4324" to-port="4" />
		<edge from-layer="4324" from-port="5" to-layer="4329" to-port="0" />
		<edge from-layer="4324" from-port="5" to-layer="4350" to-port="0" />
		<edge from-layer="4325" from-port="0" to-layer="4326" to-port="0" />
		<edge from-layer="4326" from-port="1" to-layer="4328" to-port="0" />
		<edge from-layer="4327" from-port="0" to-layer="4328" to-port="1" />
		<edge from-layer="4328" from-port="2" to-layer="4329" to-port="1" />
		<edge from-layer="4329" from-port="2" to-layer="4331" to-port="0" />
		<edge from-layer="4330" from-port="0" to-layer="4331" to-port="1" />
		<edge from-layer="4331" from-port="2" to-layer="4332" to-port="0" />
		<edge from-layer="4332" from-port="1" to-layer="4337" to-port="0" />
		<edge from-layer="4333" from-port="0" to-layer="4337" to-port="1" />
		<edge from-layer="4334" from-port="0" to-layer="4337" to-port="2" />
		<edge from-layer="4335" from-port="0" to-layer="4337" to-port="3" />
		<edge from-layer="4336" from-port="0" to-layer="4337" to-port="4" />
		<edge from-layer="4337" from-port="5" to-layer="4342" to-port="0" />
		<edge from-layer="4338" from-port="0" to-layer="4339" to-port="0" />
		<edge from-layer="4339" from-port="1" to-layer="4341" to-port="0" />
		<edge from-layer="4340" from-port="0" to-layer="4341" to-port="1" />
		<edge from-layer="4341" from-port="2" to-layer="4342" to-port="1" />
		<edge from-layer="4342" from-port="2" to-layer="4344" to-port="0" />
		<edge from-layer="4343" from-port="0" to-layer="4344" to-port="1" />
		<edge from-layer="4344" from-port="2" to-layer="4349" to-port="0" />
		<edge from-layer="4345" from-port="0" to-layer="4349" to-port="1" />
		<edge from-layer="4346" from-port="0" to-layer="4349" to-port="2" />
		<edge from-layer="4347" from-port="0" to-layer="4349" to-port="3" />
		<edge from-layer="4348" from-port="0" to-layer="4349" to-port="4" />
		<edge from-layer="4349" from-port="5" to-layer="4350" to-port="1" />
		<edge from-layer="4350" from-port="2" to-layer="4355" to-port="0" />
		<edge from-layer="4351" from-port="0" to-layer="4355" to-port="1" />
		<edge from-layer="4352" from-port="0" to-layer="4355" to-port="2" />
		<edge from-layer="4353" from-port="0" to-layer="4355" to-port="3" />
		<edge from-layer="4354" from-port="0" to-layer="4355" to-port="4" />
		<edge from-layer="4355" from-port="5" to-layer="4357" to-port="0" />
		<edge from-layer="4356" from-port="0" to-layer="4357" to-port="1" />
		<edge from-layer="4357" from-port="2" to-layer="4359" to-port="0" />
		<edge from-layer="4358" from-port="0" to-layer="4359" to-port="1" />
		<edge from-layer="4359" from-port="2" to-layer="4361" to-port="0" />
		<edge from-layer="4360" from-port="0" to-layer="4361" to-port="1" />
		<edge from-layer="4361" from-port="2" to-layer="4366" to-port="0" />
		<edge from-layer="4362" from-port="0" to-layer="4366" to-port="1" />
		<edge from-layer="4363" from-port="0" to-layer="4366" to-port="2" />
		<edge from-layer="4364" from-port="0" to-layer="4366" to-port="3" />
		<edge from-layer="4365" from-port="0" to-layer="4366" to-port="4" />
		<edge from-layer="4366" from-port="5" to-layer="4371" to-port="0" />
		<edge from-layer="4366" from-port="5" to-layer="4515" to-port="0" />
		<edge from-layer="4367" from-port="0" to-layer="4368" to-port="0" />
		<edge from-layer="4368" from-port="1" to-layer="4370" to-port="0" />
		<edge from-layer="4369" from-port="0" to-layer="4370" to-port="1" />
		<edge from-layer="4370" from-port="2" to-layer="4371" to-port="1" />
		<edge from-layer="4371" from-port="2" to-layer="4373" to-port="0" />
		<edge from-layer="4372" from-port="0" to-layer="4373" to-port="1" />
		<edge from-layer="4373" from-port="2" to-layer="4374" to-port="0" />
		<edge from-layer="4374" from-port="1" to-layer="4379" to-port="0" />
		<edge from-layer="4375" from-port="0" to-layer="4379" to-port="1" />
		<edge from-layer="4376" from-port="0" to-layer="4379" to-port="2" />
		<edge from-layer="4377" from-port="0" to-layer="4379" to-port="3" />
		<edge from-layer="4378" from-port="0" to-layer="4379" to-port="4" />
		<edge from-layer="4379" from-port="5" to-layer="4384" to-port="0" />
		<edge from-layer="4380" from-port="0" to-layer="4381" to-port="0" />
		<edge from-layer="4381" from-port="1" to-layer="4383" to-port="0" />
		<edge from-layer="4382" from-port="0" to-layer="4383" to-port="1" />
		<edge from-layer="4383" from-port="2" to-layer="4384" to-port="1" />
		<edge from-layer="4384" from-port="2" to-layer="4386" to-port="0" />
		<edge from-layer="4385" from-port="0" to-layer="4386" to-port="1" />
		<edge from-layer="4386" from-port="2" to-layer="4387" to-port="0" />
		<edge from-layer="4387" from-port="1" to-layer="4392" to-port="0" />
		<edge from-layer="4388" from-port="0" to-layer="4392" to-port="1" />
		<edge from-layer="4389" from-port="0" to-layer="4392" to-port="2" />
		<edge from-layer="4390" from-port="0" to-layer="4392" to-port="3" />
		<edge from-layer="4391" from-port="0" to-layer="4392" to-port="4" />
		<edge from-layer="4392" from-port="5" to-layer="4397" to-port="0" />
		<edge from-layer="4393" from-port="0" to-layer="4394" to-port="0" />
		<edge from-layer="4394" from-port="1" to-layer="4396" to-port="0" />
		<edge from-layer="4395" from-port="0" to-layer="4396" to-port="1" />
		<edge from-layer="4396" from-port="2" to-layer="4397" to-port="1" />
		<edge from-layer="4397" from-port="2" to-layer="4399" to-port="0" />
		<edge from-layer="4398" from-port="0" to-layer="4399" to-port="1" />
		<edge from-layer="4399" from-port="2" to-layer="4409" to-port="0" />
		<edge from-layer="4400" from-port="1" to-layer="4402" to-port="0" />
		<edge from-layer="4400" from-port="1" to-layer="4404" to-port="1" />
		<edge from-layer="4401" from-port="0" to-layer="4402" to-port="1" />
		<edge from-layer="4402" from-port="2" to-layer="4407" to-port="0" />
		<edge from-layer="4403" from-port="0" to-layer="4404" to-port="0" />
		<edge from-layer="4404" from-port="2" to-layer="4406" to-port="0" />
		<edge from-layer="4405" from-port="0" to-layer="4406" to-port="1" />
		<edge from-layer="4406" from-port="2" to-layer="4407" to-port="1" />
		<edge from-layer="4407" from-port="2" to-layer="4408" to-port="0" />
		<edge from-layer="4408" from-port="1" to-layer="4409" to-port="1" />
		<edge from-layer="4409" from-port="2" to-layer="4410" to-port="0" />
		<edge from-layer="4410" from-port="1" to-layer="4411" to-port="0" />
		<edge from-layer="4411" from-port="2" to-layer="4412" to-port="5" />
		<edge from-layer="4412" from-port="6" to-layer="4413" to-port="0" />
		<edge from-layer="4413" from-port="3" to-layer="4415" to-port="0" />
		<edge from-layer="4414" from-port="0" to-layer="4438" to-port="1" />
		<edge from-layer="4414" from-port="0" to-layer="4444" to-port="1" />
		<edge from-layer="4414" from-port="0" to-layer="4415" to-port="1" />
		<edge from-layer="4414" from-port="0" to-layer="4427" to-port="1" />
		<edge from-layer="4414" from-port="0" to-layer="4421" to-port="1" />
		<edge from-layer="4415" from-port="3" to-layer="4438" to-port="0" />
		<edge from-layer="4415" from-port="5" to-layer="4444" to-port="0" />
		<edge from-layer="4415" from-port="2" to-layer="4420" to-port="0" />
		<edge from-layer="4415" from-port="4" to-layer="4426" to-port="0" />
		<edge from-layer="4416" from-port="0" to-layer="4420" to-port="1" />
		<edge from-layer="4417" from-port="0" to-layer="4420" to-port="2" />
		<edge from-layer="4418" from-port="0" to-layer="4420" to-port="3" />
		<edge from-layer="4419" from-port="0" to-layer="4420" to-port="4" />
		<edge from-layer="4420" from-port="5" to-layer="4421" to-port="0" />
		<edge from-layer="4421" from-port="2" to-layer="4435" to-port="0" />
		<edge from-layer="4421" from-port="2" to-layer="4454" to-port="0" />
		<edge from-layer="4422" from-port="0" to-layer="4426" to-port="1" />
		<edge from-layer="4423" from-port="0" to-layer="4426" to-port="2" />
		<edge from-layer="4424" from-port="0" to-layer="4426" to-port="3" />
		<edge from-layer="4425" from-port="0" to-layer="4426" to-port="4" />
		<edge from-layer="4426" from-port="5" to-layer="4427" to-port="0" />
		<edge from-layer="4427" from-port="2" to-layer="4429" to-port="0" />
		<edge from-layer="4428" from-port="0" to-layer="4429" to-port="1" />
		<edge from-layer="4429" from-port="2" to-layer="4434" to-port="0" />
		<edge from-layer="4430" from-port="0" to-layer="4434" to-port="1" />
		<edge from-layer="4431" from-port="0" to-layer="4434" to-port="2" />
		<edge from-layer="4432" from-port="0" to-layer="4434" to-port="3" />
		<edge from-layer="4433" from-port="0" to-layer="4434" to-port="4" />
		<edge from-layer="4434" from-port="5" to-layer="4435" to-port="1" />
		<edge from-layer="4434" from-port="5" to-layer="4454" to-port="1" />
		<edge from-layer="4435" from-port="2" to-layer="4437" to-port="0" />
		<edge from-layer="4436" from-port="0" to-layer="4453" to-port="1" />
		<edge from-layer="4436" from-port="0" to-layer="4455" to-port="1" />
		<edge from-layer="4436" from-port="0" to-layer="4457" to-port="1" />
		<edge from-layer="4436" from-port="0" to-layer="4437" to-port="1" />
		<edge from-layer="4437" from-port="2" to-layer="4458" to-port="0" />
		<edge from-layer="4438" from-port="2" to-layer="4456" to-port="0" />
		<edge from-layer="4438" from-port="2" to-layer="4443" to-port="0" />
		<edge from-layer="4439" from-port="0" to-layer="4443" to-port="1" />
		<edge from-layer="4440" from-port="0" to-layer="4443" to-port="2" />
		<edge from-layer="4441" from-port="0" to-layer="4443" to-port="3" />
		<edge from-layer="4442" from-port="0" to-layer="4443" to-port="4" />
		<edge from-layer="4443" from-port="5" to-layer="4452" to-port="0" />
		<edge from-layer="4444" from-port="2" to-layer="4446" to-port="0" />
		<edge from-layer="4445" from-port="0" to-layer="4446" to-port="1" />
		<edge from-layer="4446" from-port="2" to-layer="4456" to-port="1" />
		<edge from-layer="4446" from-port="2" to-layer="4451" to-port="0" />
		<edge from-layer="4447" from-port="0" to-layer="4451" to-port="1" />
		<edge from-layer="4448" from-port="0" to-layer="4451" to-port="2" />
		<edge from-layer="4449" from-port="0" to-layer="4451" to-port="3" />
		<edge from-layer="4450" from-port="0" to-layer="4451" to-port="4" />
		<edge from-layer="4451" from-port="5" to-layer="4452" to-port="1" />
		<edge from-layer="4452" from-port="2" to-layer="4453" to-port="0" />
		<edge from-layer="4453" from-port="2" to-layer="4458" to-port="1" />
		<edge from-layer="4454" from-port="2" to-layer="4455" to-port="0" />
		<edge from-layer="4455" from-port="2" to-layer="4458" to-port="2" />
		<edge from-layer="4456" from-port="2" to-layer="4457" to-port="0" />
		<edge from-layer="4457" from-port="2" to-layer="4458" to-port="3" />
		<edge from-layer="4458" from-port="4" to-layer="4470" to-port="0" />
		<edge from-layer="4459" from-port="0" to-layer="4460" to-port="1" />
		<edge from-layer="4459" from-port="0" to-layer="4461" to-port="1" />
		<edge from-layer="4459" from-port="0" to-layer="4464" to-port="1" />
		<edge from-layer="4460" from-port="3" to-layer="4461" to-port="0" />
		<edge from-layer="4460" from-port="2" to-layer="4464" to-port="0" />
		<edge from-layer="4461" from-port="2" to-layer="4463" to-port="0" />
		<edge from-layer="4462" from-port="0" to-layer="4463" to-port="1" />
		<edge from-layer="4462" from-port="0" to-layer="4465" to-port="1" />
		<edge from-layer="4463" from-port="2" to-layer="4466" to-port="2" />
		<edge from-layer="4463" from-port="2" to-layer="4466" to-port="0" />
		<edge from-layer="4464" from-port="2" to-layer="4465" to-port="0" />
		<edge from-layer="4465" from-port="2" to-layer="4466" to-port="3" />
		<edge from-layer="4465" from-port="2" to-layer="4466" to-port="1" />
		<edge from-layer="4466" from-port="4" to-layer="4468" to-port="0" />
		<edge from-layer="4467" from-port="0" to-layer="4468" to-port="1" />
		<edge from-layer="4468" from-port="2" to-layer="4469" to-port="0" />
		<edge from-layer="4469" from-port="1" to-layer="4470" to-port="1" />
		<edge from-layer="4470" from-port="2" to-layer="4540" to-port="0" />
		<edge from-layer="4471" from-port="0" to-layer="4472" to-port="0" />
		<edge from-layer="4472" from-port="1" to-layer="4474" to-port="0" />
		<edge from-layer="4473" from-port="0" to-layer="4474" to-port="1" />
		<edge from-layer="4474" from-port="2" to-layer="4475" to-port="1" />
		<edge from-layer="4475" from-port="2" to-layer="4477" to-port="0" />
		<edge from-layer="4476" from-port="0" to-layer="4477" to-port="1" />
		<edge from-layer="4477" from-port="2" to-layer="4478" to-port="0" />
		<edge from-layer="4478" from-port="2" to-layer="4519" to-port="0" />
		<edge from-layer="4479" from-port="0" to-layer="4480" to-port="0" />
		<edge from-layer="4480" from-port="1" to-layer="4482" to-port="0" />
		<edge from-layer="4481" from-port="0" to-layer="4482" to-port="1" />
		<edge from-layer="4482" from-port="2" to-layer="4483" to-port="1" />
		<edge from-layer="4483" from-port="2" to-layer="4485" to-port="0" />
		<edge from-layer="4484" from-port="0" to-layer="4485" to-port="1" />
		<edge from-layer="4485" from-port="2" to-layer="4486" to-port="0" />
		<edge from-layer="4486" from-port="2" to-layer="4519" to-port="1" />
		<edge from-layer="4487" from-port="0" to-layer="4488" to-port="0" />
		<edge from-layer="4488" from-port="1" to-layer="4490" to-port="0" />
		<edge from-layer="4489" from-port="0" to-layer="4490" to-port="1" />
		<edge from-layer="4490" from-port="2" to-layer="4491" to-port="1" />
		<edge from-layer="4491" from-port="2" to-layer="4493" to-port="0" />
		<edge from-layer="4492" from-port="0" to-layer="4493" to-port="1" />
		<edge from-layer="4493" from-port="2" to-layer="4494" to-port="0" />
		<edge from-layer="4494" from-port="2" to-layer="4519" to-port="2" />
		<edge from-layer="4495" from-port="0" to-layer="4496" to-port="0" />
		<edge from-layer="4496" from-port="1" to-layer="4498" to-port="0" />
		<edge from-layer="4497" from-port="0" to-layer="4498" to-port="1" />
		<edge from-layer="4498" from-port="2" to-layer="4499" to-port="1" />
		<edge from-layer="4499" from-port="2" to-layer="4501" to-port="0" />
		<edge from-layer="4500" from-port="0" to-layer="4501" to-port="1" />
		<edge from-layer="4501" from-port="2" to-layer="4502" to-port="0" />
		<edge from-layer="4502" from-port="2" to-layer="4519" to-port="3" />
		<edge from-layer="4503" from-port="0" to-layer="4504" to-port="0" />
		<edge from-layer="4504" from-port="1" to-layer="4506" to-port="0" />
		<edge from-layer="4505" from-port="0" to-layer="4506" to-port="1" />
		<edge from-layer="4506" from-port="2" to-layer="4507" to-port="1" />
		<edge from-layer="4507" from-port="2" to-layer="4509" to-port="0" />
		<edge from-layer="4508" from-port="0" to-layer="4509" to-port="1" />
		<edge from-layer="4509" from-port="2" to-layer="4510" to-port="0" />
		<edge from-layer="4510" from-port="2" to-layer="4519" to-port="4" />
		<edge from-layer="4511" from-port="0" to-layer="4512" to-port="0" />
		<edge from-layer="4512" from-port="1" to-layer="4514" to-port="0" />
		<edge from-layer="4513" from-port="0" to-layer="4514" to-port="1" />
		<edge from-layer="4514" from-port="2" to-layer="4515" to-port="1" />
		<edge from-layer="4515" from-port="2" to-layer="4517" to-port="0" />
		<edge from-layer="4516" from-port="0" to-layer="4517" to-port="1" />
		<edge from-layer="4517" from-port="2" to-layer="4518" to-port="0" />
		<edge from-layer="4518" from-port="2" to-layer="4519" to-port="5" />
		<edge from-layer="4519" from-port="6" to-layer="4520" to-port="0" />
		<edge from-layer="4520" from-port="3" to-layer="4521" to-port="0" />
		<edge from-layer="4521" from-port="1" to-layer="4523" to-port="0" />
		<edge from-layer="4521" from-port="1" to-layer="4524" to-port="0" />
		<edge from-layer="4522" from-port="0" to-layer="4523" to-port="1" />
		<edge from-layer="4523" from-port="2" to-layer="4529" to-port="0" />
		<edge from-layer="4524" from-port="1" to-layer="4525" to-port="0" />
		<edge from-layer="4525" from-port="1" to-layer="4528" to-port="0" />
		<edge from-layer="4525" from-port="1" to-layer="4532" to-port="0" />
		<edge from-layer="4526" from-port="0" to-layer="4528" to-port="1" />
		<edge from-layer="4527" from-port="0" to-layer="4528" to-port="2" />
		<edge from-layer="4528" from-port="3" to-layer="4529" to-port="1" />
		<edge from-layer="4529" from-port="3" to-layer="4533" to-port="0" />
		<edge from-layer="4529" from-port="3" to-layer="4542" to-port="0" />
		<edge from-layer="4529" from-port="2" to-layer="4544" to-port="0" />
		<edge from-layer="4530" from-port="0" to-layer="4532" to-port="1" />
		<edge from-layer="4531" from-port="0" to-layer="4532" to-port="2" />
		<edge from-layer="4532" from-port="3" to-layer="4533" to-port="1" />
		<edge from-layer="4532" from-port="3" to-layer="4542" to-port="1" />
		<edge from-layer="4533" from-port="2" to-layer="4534" to-port="0" />
		<edge from-layer="4534" from-port="1" to-layer="4536" to-port="0" />
		<edge from-layer="4535" from-port="0" to-layer="4536" to-port="1" />
		<edge from-layer="4536" from-port="2" to-layer="4538" to-port="0" />
		<edge from-layer="4537" from-port="0" to-layer="4538" to-port="1" />
		<edge from-layer="4538" from-port="2" to-layer="4539" to-port="0" />
		<edge from-layer="4539" from-port="1" to-layer="4540" to-port="1" />
		<edge from-layer="4540" from-port="2" to-layer="4541" to-port="0" />
		<edge from-layer="4542" from-port="2" to-layer="4543" to-port="0" />
	</edges>
	<rt_info>
		<Runtime_version value="2025.1.0-18503-6fec06580ab-releases/2025/1" />
		<conversion_parameters>
			<framework value="pytorch" />
			<is_python_object value="True" />
		</conversion_parameters>
		<nncf>
			<friendly_names_were_updated value="True" />
			<quantization>
				<advanced_parameters value="{}" />
				<fast_bias_correction value="False" />
				<ignored_scope>
					<subgraphs value="[{'inputs': ['aten::sigmoid/Sigmoid'], 'outputs': ['aten::gather/GatherElements', 'aten::topk/TopK']}]" />
				</ignored_scope>
				<model_type value="None" />
				<preset value="performance" />
				<subset_size value="1000" />
				<target_device value="CPU" />
			</quantization>
		</nncf>
	</rt_info>
</net>
